savedmodel/CNNModel2.pth (torch, 411908 bytes, 30 tensors)

weight f4 [8, 3, 3, 3]
000000 3f ab 8f bd f3 79 96 3c 54 44 2c 3e e9 d3 57 3e
       -0.070150845 0.018368697 0.1682294 0.21076931
000010 81 af d9 bd 28 3f 0c be a6 43 93 be db b4 91 bd
       -0.10629178 -0.13695967 -0.2876255 -0.071145736
000020 5a a8 d2 bd 1c 07 f7 bd cc 74 9e 3d e3 c0 01 be
       -0.10286017 -0.12061903 0.07737121 -0.12671237
000030 a6 0c 23 be 20 57 05 be 73 bb 13 3c b0 a0 e1 bd
       -0.15922794 -0.13021517 0.009016859 -0.11016977
000040 60 20 39 be e0 7f 05 be 4f ac 04 bc f4 35 8f be
       -0.18078756 -0.13037062 -0.008097722 -0.2797085
000050 34 42 14 be e9 13 9b bd dc 3a b5 3d 71 41 fa bd
       -0.1447838 -0.07572157 0.08849117 -0.12219513
000060 d7 f2 19 be 06 10 84 be f1 17 86 3c 2a ee 1f be
       -0.15034042 -0.25793475 0.016368838 -0.15618196
000070 ef 78 13 3d 1f 00 24 be 49 af 62 be 83 24 a1 3d
       0.036004003 -0.16015671 -0.22137178 0.07868292
000080 aa 6e a0 bd 7e d7 96 be f0 44 7c be f8 67 2b be
       -0.078336075 -0.29461282 -0.24635673 -0.1673888
000090 2b 4e 5c bd af 4e af bd 39 c4 92 3d e8 b0 21 be
       -0.053785484 -0.085599296 0.07166333 -0.1579014
0000a0 32 8b c7 bd 3b bb 17 be fe 9f 0d be d7 f5 8c be
       -0.09743346 -0.14817517 -0.13830563 -0.2753131
0000b0 0e be 0f bc 2c c1 a4 bd 36 55 55 be 20 02 90 3c
       -0.00877334 -0.08044657 -0.20833287 0.017579138
0000c0 82 5a dc bb 7c c2 c1 bd d8 5b 98 bd ad 47 9c bd
       -0.0067246566 -0.09460923 -0.07439393 -0.076308586
0000d0 bb 41 cb bc 54 3a 34 be 5d c0 91 be 4f e6 e9 39
       -0.024811616 -0.17600375 -0.28467074 0.00044612816
0000e0 65 58 8f be 32 91 a2 bd f0 b9 d2 3c de e1 20 bd
       -0.27997127 -0.0793785 0.025723428 -0.039277904
0000f0 50 70 08 3e 89 a0 88 3d 80 70 3d be 0f 11 17 be
       0.13324094 0.06671245 -0.18499947 -0.14752601
000100 f1 67 83 be f8 d5 99 be e8 65 12 3d 4f 30 ac bc
       -0.25665238 -0.30046058 0.035741717 -0.02101913
000110 71 8a 6d be 49 f2 c2 3c 61 dc 2f bc 5a 29 01 3d
       -0.23197342 0.023797171 -0.010733695 0.031533577
000120 32 c3 1e 3d c5 38 b0 bd 0e 48 44 bd 95 99 1f be
       0.03876037 -0.08604578 -0.04792028 -0.1558593
000130 c9 38 fb bd 83 80 9c bd 3f 93 a3 3d c8 56 0a 3d
       -0.1226669 -0.07641699 0.07987069 0.033774167
000140 7a a3 e8 bd 1b d5 a5 3d b6 77 7f 3b 10 41 40 be
       -0.11359306 0.08097287 0.0038981265 -0.1877482
000150 cc 95 f2 bd 38 23 08 be 05 56 80 be ed 1e 3c 3d
       -0.11844978 -0.13294685 -0.25065628 0.04592793
000160 22 aa c0 bd 81 3d 88 bd 69 ff 82 3d b1 bd 05 be
       -0.0940745 -0.06652356 0.06396372 -0.13060643
000170 8f 6a 23 be 86 47 08 be bf 6f b3 3d fc 14 1b be
       -0.15958618 -0.13308534 0.08761548 -0.15144724
000180 9b 50 ce 3d f2 b1 cc 3b d1 f5 0a be 1b e5 34 bd
       0.10073968 0.0062467987 -0.13570334 -0.044163805
000190 4e 8a 65 be 86 70 2a be 43 f5 2a be 7b bf a2 bd
       -0.2241604 -0.16644487 -0.16695122 -0.07946678
0001a0 e0 9c 32 be 86 c4 5d bd ff a6 86 be 4d dd 0f 3d
       -0.17442656 -0.054142497 -0.26299283 0.03512316
0001b0 70 de 1c 3e 43 66 24 3e 3c 2f 62 3d c5 79 1c be
       0.15319228 0.16054635 0.055220827 -0.15280826
0001c0 93 ce 77 bc eb 67 3f bd 51 aa bf 3c 1d d6 97 3d
       -0.015124935 -0.046729963 0.023396643 0.07413886
0001d0 c6 e1 df bd 7f 25 4b 3d a4 ef 0a 3e 43 9c a3 3d
       -0.10931735 0.049596306 0.13567978 0.07988789
0001e0 46 e4 a8 3d a9 3b 20 be e8 27 36 be c5 05 28 be
       0.08246665 -0.15647759 -0.1778866 -0.16408451
0001f0 1d 1b d9 3d d0 86 38 bd f4 01 11 3d b9 66 ce 3d
       0.106008746 -0.045050442 0.035402253 0.100781865
000200 6d 6d 38 bc cf d1 56 be d8 50 66 bd f4 f3 a1 3d
       -0.011256558 -0.20978473 -0.056229442 0.079078585
000210 fe f1 4d be ba b9 12 3e 65 47 c0 bd 39 30 03 3e
       -0.20111844 0.14328662 -0.093886174 0.12811364
000220 63 ec bc bb d7 16 55 be 8a 23 93 be f3 a0 09 3e
       -0.005765484 -0.20809494 -0.28738052 0.13440304
000230 28 93 49 be b7 5f 1a be 47 8f 03 be 3e ea 09 be
       -0.19685042 -0.15075575 -0.12847625 -0.13468263
000240 c4 c9 6d be de c9 12 bd 78 6c 87 be a6 93 97 be
       -0.23221499 -0.035837047 -0.26449943 -0.29604834
000250 30 08 0f be 8b 3f 32 be d7 a6 87 be 87 47 38 be
       -0.13967967 -0.17407052 -0.26494476 -0.17996036
000260 de 4d 66 bd f2 92 87 bd 7d 42 b2 bd 0b 7f 00 be
       -0.056226604 -0.066198245 -0.08704088 -0.12548463
000270 ac 41 5e be 3a 67 41 be dd f0 de bc fb 0d 91 be
       -0.2170474 -0.18887034 -0.027214462 -0.2833098
000280 18 af e5 bd e2 77 33 be 73 03 46 3d 6b 1f 99 3b
       -0.11215037 -0.175262 0.048343133 0.0046729348
000290 d8 5d 93 3d ea 69 b7 3c 21 b5 ff bd b2 4d b6 bd
       0.07195634 0.022389371 -0.124857195 -0.08901538
0002a0 3f 29 17 bd 99 02 d8 bd 12 8c 0f 3d 2b cb 06 bd
       -0.03690457 -0.105473705 0.03504569 -0.0329086
0002b0 d3 0f 68 3c 70 ad 19 be 95 62 28 3d 0b 22 03 be
       0.014163929 -0.15007567 0.04110964 -0.12805955
0002c0 81 0b 56 3d fc 60 08 be b4 35 92 bc 5b d5 96 bd
       0.052257065 -0.13318247 -0.017847873 -0.07364913
0002d0 18 dd 8b 3d 9e fd 10 3e a3 09 56 3d 6b 6f e2 bd
       0.0682928 0.14159247 0.052255284 -0.110564075
0002e0 39 54 31 3e d7 59 2b be 4e f0 31 be a7 69 36 be
       0.17317285 -0.1673349 -0.17376825 -0.1781374
0002f0 0e f5 58 be 16 32 e2 bd d4 a5 52 be c5 61 de bd
       -0.21187231 -0.110447094 -0.20571071 -0.10858492
000300 90 cd 9b bd 20 ea 28 be ad 3a ef bc 85 56 4b 3d
       -0.07607567 -0.16495562 -0.029202783 0.04964306
000310 00 4b 27 be 3a 15 46 bc 1a 94 2b be a1 21 32 bd
       -0.16337204 -0.012090022 -0.16755715 -0.043489102
000320 61 a1 f0 bd c4 e9 72 be c3 13 4c bd 53 f6 a6 bb
       -0.117495306 -0.23721987 -0.049823534 -0.005095282
000330 10 0b a3 bc a3 b3 84 be e6 3a de bd f5 ba 35 be
       -0.019902736 -0.25918302 -0.10851078 -0.177471
000340 00 73 48 3d 0c 4a a9 bc 67 ea 03 bc c5 dd 85 be
       0.048937798 -0.020665191 -0.008051491 -0.2614576
000350 aa 03 98 bd 10 e1 64 be e0 0c 8c be 1c 04 42 be
       -0.07422574 -0.2235148 -0.27353573 -0.1894688

bias f4 [8]
000000 2c 4b 9d 3b 6b d9 c9 3d 3d 16 66 3d ae 4b 28 be
       0.004800221 0.09855922 0.05617355 -0.1643512
000010 07 8c 04 be 0a 6a 53 be 40 01 5b bd a9 bd da bc
       -0.12944041 -0.2064592 -0.05346799 -0.026701765

weight f4 [8]
000000 4a 42 8e 3f 75 19 5d 3f 25 b0 62 3f cb c3 8b 3f
       1.111398 0.8636697 0.88550025 1.0919126
000010 a3 24 59 3f aa f3 77 3f db d3 63 3f 6c f0 7c 3f
       0.8482153 0.96856177 0.8899514 0.98804355

bias f4 [8]
000000 db 5f b5 3d 2c 78 a3 bd f7 82 0d be 96 f4 90 bc
       0.088561736 -0.07981905 -0.1381949 -0.017694753
000010 38 95 07 be 6d 4c 97 bd 32 cc 18 be ba 42 c1 bb
       -0.13240516 -0.07387624 -0.14921644 -0.005897847

running_mean f4 [8]
000000 02 99 a4 bd fd 57 a4 bb aa 29 54 3e 5a 5e f4 bd
       -0.080369964 -0.005015372 0.20719019 -0.11932059
000010 94 9c 0b 3d d9 2d b9 be 40 fb 88 3b 3e d8 f6 bd
       0.03408487 -0.3616779 0.004180342 -0.12052964

running_var f4 [8]
000000 d2 6a 28 3f 99 a6 28 3f 32 a5 2c 3f 1d a3 29 3f
       0.65787995 0.6587921 0.6743957 0.66264516
000010 9c cc 28 3f 96 4d 3a 3f 3a 23 28 3f 06 cc 2a 3f
       0.6593721 0.72774637 0.6567875 0.66717565

weight f4 [16, 8, 3, 3]
000000 99 43 b9 3d b8 55 69 3e 7d d9 ce 3d 12 3a 30 3d
       0.09046096 0.22786605 0.10100076 0.04302413
000010 4e 34 25 3e 87 5d 34 3c 61 5a a9 3d 79 07 52 bd
       0.16133234 0.011008627 0.082691915 -0.051276658
000020 58 b5 81 3d 69 5b d9 bd 55 af 9a bd eb d8 a6 bd
       0.06333417 -0.10613138 -0.07552973 -0.081468426
000030 84 83 43 bd 5f 5e b7 3c a5 69 10 3e 09 8f 13 3d
       -0.047732845 0.022383867 0.141028 0.03602508
000040 5e c2 00 3d 2a 1b d0 3c 5f b8 51 be c8 18 5b bb
       0.031435363 0.025403578 -0.20480488 -0.0033431519
000050 94 06 42 bd 8a 7a b8 bd ad 84 b3 bc 5c f4 40 be
       -0.047369555 -0.090077475 -0.02191385 -0.18843216
000060 40 92 86 bd a4 76 38 be 78 05 42 be 61 ea 6f 3d
       -0.06570864 -0.18014008 -0.18947399 0.05857313
000070 35 70 59 3e ab ca 00 3e e9 f7 33 3e 2d 0a 2c 3e
       0.2123421 0.12577312 0.17575039 0.16800757
000080 3b 5c f9 3d be 57 a0 3d 63 27 06 3e e6 5c d2 3c
       0.12175795 0.078292355 0.13100962 0.025679063
000090 10 74 3b be ab 02 31 bd 08 bd 18 be 83 71 eb bd
       -0.18305993 -0.043215435 -0.1491586 -0.1149626
0000a0 01 f9 5b bd d1 f9 4d be d9 8c 8e bd 4d 7c 19 be
       -0.053704266 -0.20114829 -0.06960458 -0.14988823
0000b0 53 59 7d bd 1a e1 67 3c f3 1d 7c bc 14 e0 b5 bd
       -0.061852764 0.0141527895 -0.015388 -0.0888063
0000c0 59 b7 b0 bd 7a 0b a0 bd 38 d5 2b 3e 65 a5 09 bd
       -0.08628721 -0.07814689 0.16780555 -0.033605
0000d0 a0 64 b1 bd db 10 ff 3d e1 10 c1 3d bb b9 a8 bc
       -0.08661771 0.12454387 0.094270475 -0.020596376
0000e0 1a da 87 bd cc 8b 9a 3d 99 88 80 3d 88 65 8d 3d
       -0.066333964 0.075461954 0.06276054 0.06904131
0000f0 0e ea 56 3d 44 90 03 3e da 29 ee 3c 47 cb bf 3b
       0.052469306 0.12848002 0.02907269 0.00585309
000100 8d da eb bd e4 9e 9c 3d 06 4f 42 bd 76 e8 58 3d
       -0.11516295 0.076474935 -0.047438644 0.052956067
000110 1f d7 96 3d 2f 57 ad 3c c1 1e 61 3d dc 85 63 bd
       0.0736525 0.021159736 0.05496097 -0.05554758
000120 2f d7 1a bd fa c9 c3 bd ec 28 45 be 95 42 55 be
       -0.03780287 -0.09560008 -0.19253892 -0.2082618
000130 48 a5 2d be 6c 38 f1 3d 56 73 1f be 16 f8 59 bd
       -0.16957581 0.1177834 -0.15571341 -0.05321511
000140 a9 e4 e8 bc a8 fb 2f 3d 4c 0a 0c be 8a 86 4f 3d
       -0.028429346 0.042964607 -0.13675803 0.050665416
000150 94 fe a7 bd 1e 9c 32 be ad e0 3a 3d 80 63 47 3d
       -0.08202854 -0.17442366 0.045624424 0.048678875
000160 4c c4 47 be ff 39 60 3c 40 9c 14 bd cb 3f de bd
       -0.19508475 0.013685702 -0.036281824 -0.10852011
000170 16 45 f0 bc 62 ef bc bd 34 d5 a4 bd 3f 89 83 bc
       -0.029329818 -0.09225346 -0.08048478 -0.016056655
000180 23 ac 3c be 3b 53 14 be 9a aa df bb 88 7f 6d 3d
       -0.1842504 -0.14484875 -0.006825757 0.05798295
000190 97 8f c0 3d ac d0 ab 3d 0b fd f5 bb 70 68 01 3e
       0.094023876 0.083894104 -0.0075069717 0.12637496
0001a0 ed 64 07 be 8f a9 a1 bd 54 fc bc 3d 65 09 26 be
       -0.13222094 -0.07893669 0.09227815 -0.16214521
0001b0 50 3b ea bc 4d b6 41 bd 06 ad 01 be e9 ac dc bd
       -0.028592736 -0.047292996 -0.1266366 -0.107751675
0001c0 53 23 ce bc e6 40 5d bd fc 87 1b be 84 75 19 be
       -0.025163328 -0.05401697 -0.15188593 -0.14986235
0001d0 39 ce ad bc 18 6d 0a be eb 4d 47 be 13 bf 02 be
       -0.021216499 -0.13518178 -0.19463317 -0.12768202
0001e0 7f ac 58 be 54 10 18 be 15 48 7b be f3 32 e5 bd
       -0.21159552 -0.14849979 -0.24539216 -0.111913584
0001f0 38 ba 52 bd ff b0 70 be ee a4 90 bd 8c 1a f5 bd
       -0.051447123 -0.23505019 -0.07062708 -0.11967954
000200 2d be 31 be e0 a9 c1 bd 57 68 9e bd de ca 3b bd
       -0.17357703 -0.09456229 -0.07734745 -0.045847766
000210 70 63 8c bd 61 db 92 bd 2d c3 85 bd 60 ad 90 bd
       -0.06854904 -0.071707495 -0.065313675 -0.07064319
000220 67 38 25 be 00 be 37 be a3 2b 47 bd 81 7e 43 be
       -0.16134797 -0.17943573 -0.0486256 -0.19091226
000230 7e 9b ea 3c 29 31 0a be 5e 49 16 be 08 0e a8 bd
       0.028638598 -0.13495316 -0.14676425 -0.08205801
000240 85 70 f1 3d e2 72 5c bd 94 cd 7f 3d 27 1e af bd
       0.117890395 -0.0538205 0.062451914 -0.08550673
000250 f7 65 c7 3c 00 25 af 3d 30 27 a7 bb 91 b7 78 bd
       0.024340613 0.08551979 -0.005101107 -0.060721938
000260 d8 c3 50 bd ac 38 dc bd cb e0 cc ba 53 e3 d2 3c
       -0.05096802 -0.10752997 -0.0015630958 0.025743162
000270 01 22 a2 3c 13 f5 0a be 11 04 00 be a6 60 80 3d
       0.019791605 -0.13570051 -0.12501551 0.06268434
000280 c1 37 8e bd ac 33 e3 bd 82 53 23 be 77 10 cc bd
       -0.06944228 -0.1109384 -0.15949824 -0.09964078
000290 41 08 6f bc eb 38 dd bd 02 1b 8d bc 7d db 15 be
       -0.01458937 -0.10801872 -0.017224792 -0.1463451
0002a0 d5 fe 00 be 4e 99 a3 bc be 70 e3 bd ee b2 a3 bb
       -0.1259721 -0.019970562 -0.11105488 -0.0049956953
0002b0 e6 67 6e 3d 6e ca a8 3d b1 2a 02 3d 47 6c e8 3d
       0.058204554 0.082417354 0.031778995 0.11348777
0002c0 e8 f7 27 3c 5c 07 a3 3d 38 06 cb bd 74 12 14 3e
       0.010251977 0.07960388 -0.099132955 0.14460164
0002d0 14 24 b0 3d e3 ea 5a 3e 9b 18 65 3d 32 be 05 bb
       0.08600631 0.21378665 0.05593167 -0.0020407555
0002e0 e8 38 86 3d 00 4e e5 3d 2b 83 01 3e bb 5a d8 3a
       0.06553823 0.11196518 0.12647693 0.0016506532
0002f0 cc d4 62 3d 25 a1 a4 bd 09 0c c5 3d fd 5e 23 bd
       0.05537872 -0.080385484 0.09621436 -0.03988551
000300 e3 87 c4 bd 92 59 ef 3c 8c a3 c6 3d 49 9c 0e 3d
       -0.09596231 0.029217515 0.09699163 0.034817014
000310 d7 7e 12 3b b1 59 d7 bd 0d e3 1d bd 21 f3 3e bd
       0.0022353434 -0.10515154 -0.03854661 -0.046618585
000320 67 a7 f3 bb 01 e5 a3 bd 2d 31 45 bc 73 ad 58 bb
       -0.0074357274 -0.080026634 -0.01203565 -0.0033062368
000330 1a 51 67 3d 01 c7 17 3c 56 70 15 bd 5f 2c c4 b9
       0.05647383 0.009263755 -0.036484085 -0.00037417092
000340 24 b9 66 bd c1 ba 05 3d b0 86 d3 3b 4f a6 ae 3b
       -0.056328908 0.032648806 0.006455265 0.005329884
000350 3d 36 7a bd 15 c6 a1 3d e7 2f 41 bd 52 12 12 bd
       -0.061086882 0.07899109 -0.047164824 -0.035662003
000360 f7 2b b2 3d ff 6d 16 3d 54 61 36 3e 17 3f 51 3e
       0.08699792 0.036725994 0.17810565 0.20434223
000370 7c 28 33 3e 87 06 6b 3e ed ea 11 3d ed 28 b1 3d
       0.17495912 0.22951709 0.035624433 0.08650384
000380 2c be 04 3e 56 ae 65 bc 20 0f 73 ba 04 7b ef 3c
       0.1296317 -0.014018616 -0.0009271968 0.029233463
000390 bf 48 89 3b 81 f9 6e 3e 76 bd cc 3d 6d 79 19 3e
       0.00418958 0.23337366 0.09997074 0.14987727
0003a0 55 1a 41 bc e3 7f 0c 3e 43 dc a4 bd 72 8c 8c bb
       -0.011786063 0.1372066 -0.08049824 -0.0042892033
0003b0 4d 96 ff b9 a1 f4 4f 3d 01 0a 68 3d 4c 75 09 be
       -0.00048749373 0.050770406 0.056650165 -0.13423651
0003c0 be c9 2f be 10 fb d8 bd 4f db 66 bc d8 7a 94 3d
       -0.17166802 -0.10594761 -0.014090373 0.07249993
0003d0 3f 58 a2 3d 10 de fb 3d 0f cb 00 3e ac 9e 68 3d
       0.07926988 0.122982144 0.1257746 0.056791946
0003e0 2b ae 76 3c ad 72 15 3e 6f 9f 06 3e b1 a4 0f 3d
       0.015056173 0.14594527 0.13146757 0.03506917
0003f0 4d ce ab bd 98 60 2e 3d c6 2f ef 3d a2 d5 c2 3d
       -0.08388958 0.042572588 0.11679034 0.095134035

bias f4 [16]
000000 6a 10 df 3c e9 7c 81 bd ad dc 45 3d e1 5d 85 3c
       0.027229507 -0.06322653 0.048306156 0.016280117
000010 2c 5c 39 bd 73 e0 23 be 79 02 ee bd de 5c cf 3d
       -0.045253918 -0.1600359 -0.11621565 0.10125135
000020 d7 e1 1e bd f1 cd 15 3d 19 ef aa bd c0 cb aa bb
       -0.038789596 0.036573354 -0.083463855 -0.005212277
000030 3f 58 2d bd 93 dd 9b 3c c7 79 2f be a5 bc 46 3c
       -0.042320486 0.019026553 -0.17136298 0.012129937

weight f4 [16]
000000 08 c9 6c 3f dd 6e 5d 3f 97 95 75 3f 1d b9 7e 3f
       0.9249425 0.8649729 0.9593138 0.9950121
000010 ab 4d 62 3f e0 17 81 3f 87 8b 7f 3f b6 46 7d 3f
       0.8839976 1.0085411 0.99822277 0.9893602
000020 fb c9 74 3f 32 1e 6a 3f 98 fd 5e 3f 63 78 81 3f
       0.956207 0.91452324 0.87105703 1.0114864
000030 48 18 65 3f 72 dd 6b 3f 7a 65 67 3f 44 b7 79 3f
       0.89490175 0.92134774 0.90389216 0.97545266

bias f4 [16]
000000 09 fc 93 bd 2d 4d ea bd d4 df ad bd 40 bd 9d 3d
       -0.07225806 -0.11440501 -0.084899575 0.07702112
000010 1f ca a1 bd cc d6 85 bd 1d 20 59 bc 87 3f c7 3d
       -0.0789988 -0.0653511 -0.013252285 0.09728914
000020 55 c8 0e bd 8a 37 8d bd a8 59 dc bd 8e 72 97 bd
       -0.03485902 -0.06895359 -0.10759288 -0.073948964
000030 fa d3 a8 bd 05 f3 b2 bd 2b 56 94 bd e5 37 54 3c
       -0.08243556 -0.087377585 -0.07242998 0.012952779

running_mean f4 [16]
000000 01 61 f9 bc 98 24 27 be a6 9a 1a 3e 78 57 96 3d
       -0.030441763 -0.16322553 0.15098056 0.07340902
000010 22 e7 0d bd f0 d7 af 3d 24 52 f9 3c c5 00 29 3d
       -0.034644254 0.08586109 0.030434676 0.0412605
000020 90 91 d9 bc ca bd 51 3d 92 93 8c be bd 11 2a 3e
       -0.026558667 0.051206388 -0.27456337 0.16608329
000030 94 fc f8 bd a6 66 f9 3c 4b 29 90 be 18 ca 4a bc
       -0.121575505 0.030444454 -0.28156504 -0.0123772845

running_var f4 [16]
000000 e1 84 39 3f b6 f2 6c 3f b6 3f 60 3f 99 03 40 3f
       0.7246838 0.9255785 0.87597215 0.7500549
000010 0f 54 37 3f 58 44 53 3f 1b e6 56 3f 05 91 3b 3f
       0.7161264 0.8252616 0.83944863 0.7326816
000020 bc ad 3e 3f aa 11 41 3f 13 8f 8d 3f 19 6a 4e 3f
       0.7448385 0.7541758 1.1059288 0.8063064
000030 a2 1e 3f 3f 0d ab 47 3f 99 96 9c 3f 86 f6 36 3f
       0.74656117 0.7799538 1.2233459 0.71469915

weight f4 [32, 16, 3, 3]
000000 6c 64 9b bd 87 b8 09 be 35 06 c9 bd fe 4f 83 3c
       -0.07587513 -0.13449298 -0.09815637 0.016029354
000010 04 5d bf bd ab bf 5e be 02 28 9a bd 64 62 a3 bd
       -0.09343913 -0.21752803 -0.07527162 -0.07977751
000020 ac c2 0c be 3e 48 90 bd 5f ab 5e bc d0 d8 b2 bd
       -0.13746136 -0.07045029 -0.013590663 -0.0873276
000030 13 a0 96 bc ea 23 c3 3c f6 a6 5a bd 92 34 db bd
       -0.018386876 0.023820836 -0.053381883 -0.10703386
000040 4b 5a 96 bd 8a fe 5d bd 2d 7c 1c be 88 de 5f be
       -0.07341441 -0.054197825 -0.15281744 -0.21862233
000050 2f e0 7e be 48 9f e4 bd f9 97 7f be 1b 74 12 be
       -0.24890207 -0.11163193 -0.24960317 -0.14302103
000060 0a e8 92 bd aa 04 9b bd a7 64 ec bd 29 42 65 bd
       -0.07173164 -0.07569249 -0.115426354 -0.0559713
000070 6c a4 01 3d d1 bb f3 3a 00 0f f3 3d b5 49 9e 3d
       0.031650946 0.0018595402 0.118680954 0.07728902
000080 f8 f4 6b 3c 97 5e 46 3e 79 d4 04 be 9b 1a bd bd
       0.014401667 0.1937202 -0.12971677 -0.0923359
000090 60 17 84 3d a7 bf 03 3d b3 2b 0c 3d 0f 4c 81 bb
       0.06449771 0.032165196 0.034221362 -0.0039458345
0000a0 e4 96 96 3d 8a 73 8f 3c f1 ee f4 3c 42 c8 7d 3d
       0.07352999 0.017511148 0.029899092 0.06195856
0000b0 06 f2 63 3c 02 52 8a 3d 15 d7 bd bd 82 7d f1 bd
       0.013912683 0.06753923 -0.09269539 -0.11791517
0000c0 1f 33 88 3d 39 63 00 bc 8f 4f 33 be 79 a0 08 3e
       0.066503756 -0.0078361565 -0.17510818 0.13342465
0000d0 d9 dc be 3d 86 dc 10 be 98 63 19 bd 39 c7 00 3d
       0.09319467 -0.14146623 -0.037448496 0.031439994
0000e0 a2 30 64 be ca 29 d2 3d 9c 6e ca 3d 4a 14 b3 bc
       -0.22284177 0.10261877 0.09884378 -0.02186026
0000f0 cd 5b 20 3e 85 f9 7f bd dd 2d 05 be 14 af 82 bd
       0.15660019 -0.06249382 -0.13005777 -0.0638105
000100 2d 14 b4 bd bf a2 1d be 40 2b c5 3d 4d 77 22 3d
       -0.08792911 -0.15394114 0.0962739 0.039664555
000110 4e d2 21 be df b9 89 3d b6 97 0c bc 7f 60 c8 bd
       -0.15802881 0.06724905 -0.008581093 -0.0978403
000120 7d 94 a5 3c 5c 73 73 bd 76 35 fd bd 4c a2 c1 3d
       0.020212406 -0.059436187 -0.123637125 0.09454784
000130 6c d3 df 3b 9f 4c f1 bd 52 3a e5 bc bb 49 14 be
       0.0068306234 -0.117821924 -0.02798191 -0.14481251
000140 68 40 4a be c4 23 fb 3c 38 a2 46 3d a2 07 97 bd
       -0.19751132 0.030656703 0.048494548 -0.07374503
000150 b2 c1 02 3d 18 49 d6 3c 8e 70 b7 bd b2 a5 0a 3e
       0.031923003 0.0261579 -0.08957015 0.1353977
000160 cd fa 87 bc bb 89 d3 bb ec 13 7d bd 8f a8 fe bd
       -0.016599083 -0.0064556277 -0.061786577 -0.12434494
000170 be 0c f8 bc 5b 6e 01 be 28 f0 24 bd 1b 3c d1 3a
       -0.030279513 -0.12639754 -0.040268093 0.0015963347
000180 9f a9 52 bc cc 1f 0e be b5 33 e4 bd 17 75 85 3d
       -0.012857824 -0.13879317 -0.11142675 0.06516474
000190 66 25 64 bd 7b 74 1a bd 32 c8 1a 3d 4e da 0d be
       -0.05569973 -0.03770874 0.037788577 -0.13852808
0001a0 fb 2a 3d ba ea 12 9b 3c ec 6d 89 bd e4 ac 23 bd
       -0.00072161824 0.018929917 -0.06710419 -0.039959803
0001b0 dd 6a 78 3d f5 6b 64 bd af 46 78 3d 6c c7 c0 3d
       0.060648788 -0.05576702 0.060614284 0.09413037
0001c0 9b 1b cf 3c ba 31 80 3c e1 51 f8 bd d7 33 59 bd
       0.025281718 0.015648711 -0.12124992 -0.053027954
0001d0 5f ec 17 bb 56 ae b4 bd b1 c0 f3 bc 70 3b e1 bd
       -0.002318166 -0.088223144 -0.029754968 -0.10997665
0001e0 86 3b 3d bc be ac 4d bd 60 99 26 be 70 07 c3 bc
       -0.011549836 -0.050213568 -0.16269445 -0.023807257
0001f0 ad 32 6d bc 84 6a 1b be d9 bd 3e 3e 5d 4a 99 3d
       -0.014477414 -0.15177351 0.18627109 0.07484887
000200 bd d2 3b 3e fc 4a 2c 3e 5a 2c 1a 3e 38 1b b4 3d
       0.18342109 0.1682548 0.15055981 0.08794254
000210 59 cc 12 3e 7f ae 48 3d 4c bd 52 3e a6 cf 5c be
       0.14335765 0.048994537 0.20580024 -0.21563587
000220 41 4c ec bd 19 23 2e be 8f df 37 be b4 ae e9 bc
       -0.11537982 -0.17005576 -0.17956375 -0.028525688
000230 a5 f8 da bd fa af 16 be 85 53 f6 bd ab 21 24 be
       -0.106919564 -0.14715567 -0.12027649 -0.16028468
000240 5d 9e db bd b7 f9 f8 bd cc 09 26 be b6 ca e5 bd
       -0.10723565 -0.12157004 -0.16214675 -0.11220305
000250 26 39 12 be e7 bb 8f bd 58 ef 84 bd 1b 0f 7b bd
       -0.14279613 -0.070182614 -0.06490964 -0.061293703
000260 da e4 a2 bd 8f d3 19 be c4 3f 58 bd 5f f6 e7 bd
       -0.07953806 -0.1502211 -0.052795187 -0.113262884
000270 10 85 a6 bd 7b 68 53 bd 2a b2 30 be c3 3c 3b bd
       -0.081308484 -0.051613312 -0.17255464 -0.045712244
000280 1e 88 87 bc 75 23 b5 bd e1 0c 3d 3d 90 6b 83 bd
       -0.016544398 -0.088446535 0.04615486 -0.06417
000290 3b 14 03 3d 5d d6 74 bd 2f cc a5 bd 05 eb b0 3c
       0.032001715 -0.059774745 -0.080955856 0.021596441
0002a0 6d 73 08 bd 79 75 6c 3d 01 57 19 bd 0e 8d 03 bd
       -0.033313204 0.05772922 -0.03743649 -0.032116942
0002b0 9f 1b 32 be 78 51 d1 bd 37 62 73 bc b0 f9 ec bd
       -0.17393349 -0.10220617 -0.014854959 -0.115710616
0002c0 c0 c9 cd bc b2 43 40 bd 0c aa 89 bd 6a e6 a9 bd
       -0.025120616 -0.04693956 -0.06721887 -0.08295901
0002d0 97 77 36 3c 2b 18 ed bd 9d cf 0b bd 8f 4a a1 3c
       0.011136911 -0.11576875 -0.034133542 0.019688873
0002e0 dd 30 39 bd fb d7 0f bc c6 32 1c bd a3 20 13 bd
       -0.045212615 -0.008779521 -0.03813436 -0.035919797
0002f0 a8 12 f8 bc 3b f4 e3 bc 04 32 ba bd ff 47 77 bd
       -0.030282333 -0.02782642 -0.09091571 -0.060371395
000300 6d c1 07 bd b5 aa ff bd e9 3f c2 bd cc c6 8e bd
       -0.03314345 -0.12483732 -0.09484846 -0.06971511
000310 57 21 b9 bd 16 95 d5 bd 7b 50 43 bd 9b d8 3c 3c
       -0.09039562 -0.104288265 -0.047684174 0.011526252
000320 c2 3c b5 bc 1e 38 5a bd 55 db 21 3d a3 93 93 3d
       -0.022123698 -0.053276174 0.039515812 0.07205894
000330 c7 4d b7 3d 8a b7 1e bd 4a 4d 12 bd 4c c1 1c 3c
       0.08950382 -0.038749255 -0.03571824 0.00956757
000340 56 d7 8f 3d b6 78 e6 3c 25 2e 24 3e ae 45 44 3c
       0.07023494 0.028133731 0.16033228 0.011979504
000350 47 5d 3b 3b d2 8d 50 3d ff 2d 89 3d 05 04 50 3d
       0.0028589533 0.0509165 0.06698226 0.050785083
000360 ce 5e 62 bb 7c 19 ad bb ff 2f 22 3d b0 4a a5 bd
       -0.0034541371 -0.005282579 0.039596554 -0.08070886
000370 b6 46 3e 3c 07 5b 1c bd e1 0d 50 3d 98 a8 65 bd
       0.0116135385 -0.038172748 0.050794486 -0.056068987
000380 86 44 eb 3c 3a 06 ec bc 67 17 eb bc de 2c 7f bd
       0.028719198 -0.028811563 -0.028697683 -0.062298648
000390 2b 45 4a bd 15 67 d8 3c dc e2 47 3c c1 9f 5b bd
       -0.04938237 0.02641634 0.012200084 -0.05361915
0003a0 5a e6 70 bd 53 a4 4b bd 87 02 24 be 36 07 cf bd
       -0.05881343 -0.04971726 -0.16016589 -0.10108797
0003b0 8c 4c 07 be 64 b9 18 be 01 92 b9 bd f2 3c b9 bd
       -0.13212794 -0.14914471 -0.09061051 -0.090448275
0003c0 be 92 24 be 4a 0e b7 bd 34 91 21 bd 4e 41 ef 3d
       -0.16071603 -0.08938272 -0.039445117 0.11682378
0003d0 e9 e5 0b 3e c6 11 9d 3d 84 71 32 3e 6a bd 8e 3d
       0.13661923 0.07669406 0.17426115 0.069697216
0003e0 26 f9 8d 3d f9 59 0a 3e b5 f7 8f 3d 4a 3e 93 3b
       0.06932287 0.13510884 0.07029668 0.0044935094
0003f0 77 bd 87 3d 59 fe d0 3d ec 73 d8 3d 8c 16 53 3d
       0.066279344 0.10204763 0.10568985 0.051535174

bias f4 [32]
000000 7d 97 16 be 9c c5 16 be c1 05 b8 bd f5 d7 a2 3c
       -0.14706226 -0.1472382 -0.089854725 0.019878367
000010 fb b2 26 3d 06 95 23 bc 9b dc 1d be 73 1c 75 bd
       0.040698033 -0.00998426 -0.15416186 -0.059841584
000020 e9 ff dc bd 3e 6b f5 bd ba 46 10 be 73 35 f1 bd
       -0.107909985 -0.119833454 -0.1408948 -0.11777773
000030 96 e4 f8 bd 31 b2 87 bd 18 f8 c3 bd 83 46 ac bd
       -0.12152974 -0.06625784 -0.095688045 -0.084118865
000040 6a a9 2a bd 91 e2 b3 3c 9c 21 5b bc 24 3f 31 3c
       -0.041665472 0.021958621 -0.013374712 0.010818277
000050 3b dd a7 bd aa 1d b3 bc db 8c fb ba b5 26 a8 bd
       -0.08196493 -0.02186473 -0.0019191758 -0.08210508
000060 a2 02 9c bd f6 33 e0 bd 90 97 da bb 0c 05 b1 bc
       -0.0761769 -0.10947411 -0.0066708997 -0.021608852
000070 1d 45 0c be c2 bd 0c be cb 56 08 be 20 5a ef bd
       -0.1369824 -0.13744262 -0.13314359 -0.11687112

weight f4 [32]
000000 c5 78 87 3f 2b f2 60 3f 04 27 67 3f d1 c6 6e 3f
       1.0583731 0.8786952 0.9029391 0.9327212
000010 97 95 6c 3f ae 6c 68 3f 87 22 75 3f 77 90 78 3f
       0.92415756 0.9079083 0.9575581 0.97095436
000020 71 ff 5b 3f 6c 69 82 3f c2 b7 7c 3f c0 c2 70 3f
       0.8593665 1.0188422 0.9871789 0.94047165
000030 16 d5 82 3f 9e f7 5e 3f f3 c1 74 3f 70 a1 67 3f
       1.0221279 0.87096584 0.95608443 0.9048071
000040 25 08 7e 3f 10 84 8c 3f fd 21 6d 3f bd e7 80 3f
       0.9923118 1.0977802 0.92629987 1.0070721
000050 af c6 57 3f ff 1b 63 3f 7a 9d 7c 3f d7 cd 77 3f
       0.8428754 0.88714594 0.9867779 0.9679846
000060 53 02 85 3f 68 7b 72 3f b7 01 5c 3f f6 28 63 3f
       1.0391334 0.94719553 0.85940117 0.88734376
000070 5d 7e 66 3f b7 5f 5e 3f 78 8b 59 3f ba 68 7e 3f
       0.90036565 0.868648 0.8497844 0.9937855

bias f4 [32]
000000 65 ae 4e bd e8 27 d7 bd 5e 46 e5 bc a2 1f 73 bd
       -0.050459284 -0.105056584 -0.027987655 -0.05935634
000010 ed be 29 bd f3 fb 99 bd 58 3b 0e bd 73 ff 80 bd
       -0.041441847 -0.075187586 -0.034724563 -0.06298723
000020 1a 53 91 bd 1b 5f ba bd 4c 76 63 bd d8 70 da bd
       -0.070959285 -0.09100171 -0.05553274 -0.106660545
000030 98 a2 25 bd 27 fc 90 bd 09 f7 4b bd c6 d3 5d bd
       -0.040438265 -0.07079344 -0.049796138 -0.05415704
000040 37 1a e2 bc 39 ef c5 3c 0b af 2a bd c5 8c 20 bd
       -0.02760039 0.024161922 -0.04167084 -0.03919675
000050 78 bb c3 bd 8d 16 aa bd 89 50 b5 bc 44 d9 00 bd
       -0.09557241 -0.083050825 -0.022133129 -0.0314572
000060 82 21 a0 bd 8a 5f a0 bd 1c 96 fb bd e0 8e bc bd
       -0.07818891 -0.07830723 -0.122844905 -0.09206939
000070 8b d4 92 bd 24 41 f4 bd e8 86 07 be 9c 4e e1 bd
       -0.071694456 -0.11926487 -0.13235056 -0.11001322

running_mean f4 [32]
000000 07 ab 0b 3e 0e 28 88 3e 2c 13 05 bf 5e 0e d6 3e
       0.1363946 0.2659306 -0.5198238 0.41807836
000010 d6 51 aa 3c 7f 30 81 bd 3e cd af be ce 2d b5 3c
       0.020790976 -0.06308078 -0.34336275 0.022116568
000020 34 d1 fc be 1c 10 12 3d b6 2c 3b 3d 7a 81 43 3d
       -0.4937836 0.035659894 0.045696937 0.0477309
000030 d4 dd 30 be 1c 13 dc be 3b 9a c3 bd d4 3e dc be
       -0.1727212 -0.4298333 -0.095509015 -0.43016684
000040 f5 13 ae 3b e3 bb 77 3e 9e 02 61 3d 59 52 d1 3e
       0.0053124377 0.24192767 0.054934137 0.4088314
000050 e9 73 a5 3e b8 e4 cd be 0f a4 a8 3d d6 2d be 3e
       0.32314995 -0.4021356 0.08234417 0.37144345
000060 fc d6 2d 3d ea f0 e9 3d ac 99 d0 3e 44 26 8a 3c
       0.042441353 0.11422904 0.40742242 0.01686395
000070 3a e2 6c be 57 70 25 3e bc 2c f6 bd 20 f1 51 3e
       -0.23133174 0.16156135 -0.12020251 0.20502138

running_var f4 [32]
000000 b8 9d 4f 3f 30 3f b6 3f 6b a0 15 40 7b 51 0b 40
       0.81100035 1.4238033 2.3379161 2.1768482
000010 b0 f0 4f 3f 7e c3 57 3f 1d 66 9c 3f 25 19 4c 3f
       0.81226635 0.8428267 1.2218663 0.7972587
000020 41 7b fc 3f fb ae 54 3f 10 d8 56 3f 04 dc 48 3f
       1.9725114 0.830795 0.83923435 0.7846072
000030 2d 56 57 3f df 2d e4 3f 6c a8 43 3f b4 10 af 3f
       0.8411587 1.7826499 0.76428866 1.3676972
000040 9d a5 62 3f d5 57 8a 3f 4c fa 58 3f 0e ab b9 3f
       0.88533956 1.0808054 0.8475692 1.4505327
000050 06 6d b0 3f b0 48 91 3f 7d 84 64 3f bd da c7 3f
       1.3783271 1.1350307 0.8926466 1.5613629
000060 a8 ed 66 3f a2 08 65 3f 76 62 bb 3f 12 45 56 3f
       0.90206385 0.894663 1.4639423 0.8369914
000070 03 d2 db 3f be e8 56 3f 33 32 4d 3f ed 09 96 3f
       1.7173465 0.83948886 0.8015472 1.1721779

weight f4 [64, 32, 3, 3]
000000 40 86 b7 ba ab 68 2e bc 62 b3 19 3e 87 2b d9 3d
       -0.0014001802 -0.010645072 0.15009835 0.10604005
000010 9d 87 29 3e b2 cf eb 3d 4b 3c d8 3d c9 d1 fa 3d
       0.16555639 0.11514224 0.10558375 0.122470446
000020 b4 19 33 3d 95 f6 98 bc bd 12 34 bc 4f c7 42 3d
       0.043725684 -0.018672267 -0.010990796 0.047553357
000030 94 28 ce 3d 36 c3 d9 3d 3e 6d 97 3d 90 5a a4 3b
       0.100663334 0.10632937 0.07393883 0.0050156787
000040 ef 95 55 3d 0c ca 9a bd ff 2b 90 bd 0c 80 f6 bc
       0.05214494 -0.07558069 -0.070396416 -0.030090354
000050 f7 38 9b bc f5 00 87 bd af 9d f6 bd 3e 38 f8 bd
       -0.018948061 -0.065919794 -0.120417945 -0.12120102
000060 fb 41 d4 bd ff 53 4c bd 73 c2 f8 bd d2 8f 4f bc
       -0.10364147 -0.049884792 -0.12146463 -0.012668567
000070 0b b9 7f 3c 0a b6 c2 bc 66 a1 b6 bc 25 ca b9 3a
       0.0156080825 -0.023768444 -0.022293758 0.0014174624
000080 f3 e5 05 bc 06 f2 cb ba 22 10 5c 3c d9 bf 3c bd
       -0.0081725 -0.00155598 0.013431581 -0.046081398
000090 64 41 df bd 89 32 22 bd 65 e8 03 bd f1 11 3a bd
       -0.10901144 -0.039598975 -0.03220405 -0.045427267
0000a0 92 60 05 be cf 2c 64 bd f5 75 a9 bb c4 1f 07 bd
       -0.1302512 -0.055706795 -0.0051715323 -0.03298928
0000b0 77 8f 5a bc d4 cd e9 bd 6b d8 0d be 08 aa 88 bd
       -0.013339869 -0.11416212 -0.13852088 -0.06673056
0000c0 00 ac 93 bd 98 07 99 bd 8c c1 b0 bd 74 ef d7 bd
       -0.07210541 -0.074721515 -0.08630666 -0.10543719
0000d0 c0 f0 d5 bd 63 3c d0 bd 28 62 fa bc 0f 05 19 3b
       -0.1044631 -0.10167768 -0.030564383 0.0023348962
0000e0 b5 50 3e bc dd 5e 06 bd 85 6b 2e 3c c1 68 5f bc
       -0.011615922 -0.032805312 0.010645752 -0.013635815
0000f0 c0 c2 6c bd 75 33 44 bc f8 33 b5 bd 46 68 b2 bd
       -0.057802916 -0.011975159 -0.08847803 -0.08711295
000100 06 17 af b9 3e 0b af 3c e4 20 53 bb 7d aa 54 3c
       -0.00033395755 0.021367665 -0.003221565 0.012980101
000110 31 13 e4 b9 07 5e a7 3a 5f fe 9b bd ea 54 01 be
       -0.00043501848 0.0012769111 -0.07616877 -0.12630048
000120 6a d0 31 bd fe 28 56 bd a4 3a cd bd e8 02 14 be
       -0.04341165 -0.052285187 -0.100209504 -0.14454234
000130 14 f7 eb bd 6a 35 ac bd 1f be d4 bd f3 b1 0c be
       -0.11521736 -0.084086254 -0.10387825 -0.13739757
000140 c7 d1 f4 bd 56 f2 0f bc 38 55 b8 3d 3d cc 9e 3d
       -0.11954074 -0.008785805 0.09000629 0.07753799
000150 aa 9a d2 3d 34 a9 e3 3d 2a a2 2d 3e 89 06 ec 3c
       0.10283406 0.11116257 0.16956392 0.02881171
000160 f7 8b cf 3d bd b8 fb 3d 7e 2a 45 bd 6f d8 78 bd
       0.10134118 0.122910954 -0.048136227 -0.060753282
000170 fe 22 e4 bc 25 e3 69 bc d3 03 c7 bb d5 1c e4 bb
       -0.027848717 -0.014275347 -0.006073454 -0.006961445
000180 55 df 88 bc 6e 41 f4 bd 1c a8 c8 bd 94 2c d4 3c
       -0.016708056 -0.11926542 -0.09797689 0.025900163
000190 e6 09 da 3d e4 25 89 3c 43 38 07 3e de b2 d6 3d
       0.10646419 0.0167417 0.13205056 0.10483335
0001a0 af 37 9a 3d 4f af a0 3d 0b 52 99 3d 1b 03 95 3d
       0.07530152 0.078459375 0.074863516 0.07275983
0001b0 c4 fe 13 3d 0e 33 a2 3d cf 3c fa 3d 2e 4e 99 3d
       0.036131635 0.07919894 0.122186296 0.07485615
0001c0 f2 e1 db 3d 68 73 95 3d 21 14 e3 3d 9d b1 78 3d
       0.10736455 0.072974026 0.11087824 0.06071626
0001d0 d5 93 d4 3d b2 ef f9 bd 69 76 f5 bd 30 a1 d3 bd
       0.10379759 -0.122039214 -0.119854756 -0.103334785
0001e0 9a b3 0c be 99 bf fe bd 2b 4f 83 bd 06 f0 fd bd
       -0.13740388 -0.12438888 -0.064115845 -0.123992965
0001f0 c6 b6 8b bd e3 28 6a bd ae 3a b8 bb b3 2a c9 bc
       -0.06821971 -0.0571679 -0.0056222295 -0.024556493
000200 7a 5b 7f bc d9 bb 51 3d 47 51 23 3d 26 ab fd 3c
       -0.015585775 0.051204536 0.039872434 0.030965399
000210 5d e3 41 bc 28 06 ce 3d ba 27 2b bd 73 df 71 3c
       -0.011833993 0.10059768 -0.041785933 0.014762747
000220 59 5c 1a 3d 8c f3 3d 3c ee 44 f2 bb 06 34 50 bd
       0.037685726 0.011593711 -0.007393471 -0.050830863
000230 e6 96 d5 3c de fc e0 bb 27 50 8a bd 87 02 83 bd
       0.02607293 -0.0068660816 -0.06753569 -0.063969664
000240 58 8d f8 3c dd c9 9e 3d 11 ba 65 3c 5c be 31 3d
       0.030340835 0.07753346 0.0140214125 0.04339443
000250 7a 93 1b 3c ee c3 10 3d 4c b5 d0 3c 86 7c aa 3c
       0.00949561 0.035343103 0.025477074 0.02081133
000260 f4 80 b9 bc e2 56 17 be c1 87 3d be 0b e6 2c be
       -0.022644497 -0.14779237 -0.18508817 -0.1688463
000270 03 98 f5 bd 18 dc 55 bd 67 79 e0 bd ac 08 1e be
       -0.119918846 -0.05221185 -0.10960656 -0.15432996
000280 9d cb db bd 0c c1 d5 bd 44 b6 2d bd 1b 91 e2 bd
       -0.107321955 -0.104372114 -0.04241015 -0.11062833
000290 39 ec 6e bd 54 6b 28 bd e2 fb 94 bd 1e d2 80 bd
       -0.05833075 -0.04111798 -0.07274605 -0.06290077
0002a0 7e 46 a4 bd e3 27 b9 bd 3c 0b 48 bd 1b c7 6a bd
       -0.08021258 -0.09040811 -0.04883884 -0.057318788
0002b0 a5 c8 52 bd ac 0f 79 bd 90 9f 84 3d b4 fc 45 3d
       -0.05146088 -0.06080596 0.06475747 0.0483367
0002c0 8b 62 64 3d f1 3a 50 bd 98 50 3d 3d e5 c8 97 3d
       0.05575804 -0.05083746 0.04621944 0.074113645
0002d0 84 2d 02 3d 7a ed 1d bc b7 8a 78 bc 8d 67 62 3c
       0.03178169 -0.009639138 -0.015169791 0.013818634
0002e0 cc 31 12 3d 38 82 7c 3d 77 dd 2d bd a9 c8 20 3d
       0.03569202 0.061647624 -0.042447533 0.039253864
0002f0 c7 50 95 3c 69 7b 07 3d 27 09 ba bd 04 e6 c8 bd
       0.018226994 0.033076677 -0.09083777 -0.09809497
000300 08 61 7c bd 8e 5c c2 bd 35 80 8b bd 5a 76 59 bd
       -0.061615974 -0.0949031 -0.06811563 -0.053091384
000310 28 08 ec bc 2c 4c d0 bc f8 9c 5e bc 0b 66 d2 bc
       -0.028812483 -0.025426947 -0.013587229 -0.025683424
000320 8a 59 38 bc dd c6 6b bc 0d 09 87 bc d2 7f cc 3c
       -0.0112518165 -0.014390674 -0.016483808 0.024963293
000330 6a 34 9a bd 22 e2 62 bd 30 f5 80 bd aa 52 1d 3b
       -0.075295284 -0.05539144 -0.06296766 0.002400557
000340 fe cb 88 3c 5a 30 d0 3c 5a be bb 3d 23 77 e3 3d
       0.016698834 0.02541368 0.09167166 0.11106708
000350 d2 35 91 3d aa 9f 72 3c e7 b8 d8 3c f7 61 ad 3c
       0.070903435 0.014808575 0.026455356 0.021164877
000360 24 55 9c 3d 84 02 ba 3d 73 46 b3 3d f5 34 ab 3d
       0.07633427 0.09082511 0.087536715 0.0835971
000370 60 c9 1f 3e 45 c1 21 3e 46 f9 e5 3d 68 fa d8 3d
       0.15604162 0.15796383 0.11229186 0.10594636
000380 72 71 19 3e fa 13 98 bd a2 34 ab bd 0d e1 8c bd
       0.14984682 -0.07425685 -0.08359648 -0.068788625
000390 0f d2 19 bc 07 4a 6f bd d1 6d ea bd da 18 2f bd
       -0.009388461 -0.058420207 -0.11446727 -0.04274831
0003a0 93 ae 9d 39 fb 17 8c bd 5c a6 5d bd dc 46 03 3d
       0.00030075441 -0.068405114 -0.05411373 0.03205
0003b0 aa fb 73 3c 76 84 d4 3d 35 3a b0 3c ee 50 01 bd
       0.014891544 0.103768274 0.02151213 -0.03157132
0003c0 c3 b5 3e bd 8c 64 f7 3c a0 3a 9c bc 1f 28 e9 bd
       -0.04656006 0.030199312 -0.019070923 -0.113846056
0003d0 a6 ef de bd eb d3 1f bd 81 94 b1 bc 3e 45 02 bd
       -0.10885553 -0.03902046 -0.021677257 -0.031804316
0003e0 f6 e7 cb bd ec c4 49 bd 7c 54 e9 bd a9 fc 4e bd
       -0.099563524 -0.049260065 -0.11393067 -0.050533924
0003f0 2e 6b 91 bc ea 9e f6 bd e6 e5 fc bd 70 c7 9b bd
       -0.017751303 -0.12042029 -0.12348537 -0.07606399

bias f4 [64]
000000 a6 31 da bd e3 93 05 be 20 91 1b bd 1a ab 52 bd
       -0.10654001 -0.13044696 -0.0379802 -0.051432706
000010 3b f0 b8 bd 8f 50 1b bd ba 6e 80 bd 0c d6 ce bd
       -0.09030195 -0.037918624 -0.062711194 -0.1009942
000020 7b 01 7f bd 8c 26 ac bc cf 6c 4c bc 79 f6 46 bd
       -0.06225727 -0.021014474 -0.012477114 -0.0485749
000030 ff 71 4d bd e4 49 c4 bc f5 3e be bd a1 11 af bd
       -0.050157543 -0.023961015 -0.09289352 -0.08548284
000040 31 32 72 bd 03 d5 d0 bd f5 1b 38 bd c8 b4 30 bd
       -0.059129898 -0.10196879 -0.044948537 -0.043141156
000050 b6 ac 6a bd 5a 25 cd bd bc c6 1e bd 78 55 1c bc
       -0.057293616 -0.1001689 -0.038763747 -0.009541862
000060 ca ff 75 bd 04 89 c6 bc cf 7a 0c be 52 f4 c4 bd
       -0.060058393 -0.024235256 -0.13718723 -0.09616913
000070 62 1f 27 bd 42 d8 ed bd 01 7d 78 bd 31 85 d9 bc
       -0.040801413 -0.116135135 -0.060666088 -0.026552768
000080 b1 29 86 bd 23 51 02 bd a1 5f c9 bc 59 ac a0 bd
       -0.06550921 -0.03181566 -0.024581732 -0.07845373
000090 9f a9 ea bd 45 ad 4e bc 4b 3b ef bd 4f 0f d9 bd
       -0.11458134 -0.012614553 -0.11681231 -0.10598623
0000a0 2d ff a7 bd a3 c7 b8 3c 63 e0 47 bd 19 a3 9c bd
       -0.08202968 0.022556132 -0.048797976 -0.07648296
0000b0 33 02 ae bd 89 1f 00 be 74 c9 15 bd 82 ff e9 bd
       -0.08496513 -0.1251203 -0.036569074 -0.114256874
0000c0 c7 c0 87 bc 26 e0 ab bd ac ee d9 bd 0d ae 08 be
       -0.016571416 -0.08392362 -0.10641226 -0.13347645
0000d0 18 7e ea bc c3 1d 64 3d 89 d3 dc bd d4 2f c3 bd
       -0.02862458 0.055692445 -0.10782535 -0.09530607
0000e0 61 9a fd bb 4c 54 0f 3d e5 0d f4 bc 2d ed 73 bd
       -0.0077393507 0.0349925 -0.029791782 -0.05955236
0000f0 7f f3 f2 bd 0e 34 5c 3c f0 7a f4 bd 80 c0 04 be
       -0.118628494 0.013440145 -0.11937511 -0.12964058

weight f4 [64]
000000 9d 14 7c 3f be 28 79 3f 15 d8 77 3f 5b 92 68 3f
       0.98468953 0.9732779 0.9681409 0.9084832
000010 42 2e 61 3f 5d 47 5d 3f 8e 44 79 3f 1c ef 5a 3f
       0.8796121 0.86437017 0.9737023 0.855211
000020 56 25 77 3f d5 97 6d 3f 64 21 80 3f f0 f0 5a 3f
       0.96541345 0.928098 1.001019 0.8552389
000030 35 c4 74 3f 4d 55 7b 3f e2 44 5c 3f 5b 9b 6f 3f
       0.9561189 0.98177034 0.86042607 0.9359643
000040 89 30 7b 3f e7 2f 69 3f 20 73 72 3f 89 28 5f 3f
       0.98120934 0.9108872 0.94706917 0.87171227
000050 87 32 6d 3f f4 f1 7f 3f 6a 76 69 3f d1 2a 57 3f
       0.92655224 0.99978566 0.9119631 0.8404971
000060 39 93 63 3f 56 fb 59 3f a0 65 5c 3f 46 df 62 3f
       0.8889652 0.85149133 0.8609257 0.8862194
000070 09 6f 5b 3f 42 ec 7f 3f 65 41 6a 3f 27 7b 79 3f
       0.857163 0.99969876 0.91506034 0.9745354
000080 e0 cb 81 3f 00 0f 7b 3f 83 47 81 3f 0d f0 71 3f
       1.0140343 0.98069763 1.0099949 0.94506913
000090 33 94 7d 3f c9 45 77 3f 42 81 7c 3f 0f 9f 64 3f
       0.9905426 0.9659086 0.9863473 0.89305204
0000a0 e1 8c 81 3f 2d 5f 6f 3f 90 67 78 3f ec 43 6a 3f
       1.0121118 0.935046 0.97033024 0.9150989
0000b0 5a 1a 69 3f a9 6c 7a 3f d5 20 81 3f aa 60 5b 3f
       0.91055834 0.9782205 1.0088145 0.8569437
0000c0 c3 92 7b 3f 56 4a 6e 3f 5b 53 79 3f 22 32 75 3f
       0.98270816 0.9308218 0.97392815 0.9577962
0000d0 25 05 60 3f bc d6 71 3f 70 58 59 3f b4 2c 7c 3f
       0.8750785 0.94468284 0.8490057 0.9850571
0000e0 bd b4 63 3f 67 f4 7a 3f 8a f7 73 3f a8 1a 69 3f
       0.8894766 0.9802918 0.9529959 0.910563
0000f0 2b d5 6f 3f 14 c1 5d 3f d7 13 7c 3f b1 75 79 3f
       0.93684644 0.8662274 0.98467773 0.9744521

bias f4 [64]
000000 a6 38 83 bc 2a eb 50 bd d8 68 ca bc ea a6 ac bd
       -0.016018223 -0.05100552 -0.024708197 -0.08430274
000010 33 0e 78 bd ee 73 c3 bd 44 d3 21 bd cd 6f 82 bd
       -0.060560416 -0.09543596 -0.03950812 -0.063689806
000020 88 66 4f bd aa 5b 9c bd 01 9f 18 bc 1d a8 06 be
       -0.05063489 -0.07634671 -0.009315253 -0.13150068
000030 55 9d b4 bd ca 44 8b bc 79 83 c3 bd 5b f9 52 bd
       -0.08819071 -0.017000575 -0.09546561 -0.051507335
000040 51 f4 02 bd 0d 7a ee bc da 12 4a bd c2 1e c0 bd
       -0.03197128 -0.029110933 -0.049334385 -0.093808666
000050 b0 cc 51 bd 5b 08 aa bc dc e3 6e bd da 6e e9 bd
       -0.051220596 -0.020755937 -0.058322772 -0.113980964
000060 98 b6 66 bd cb d9 95 bd 1d 84 d6 bd fa 33 b9 bd
       -0.05632648 -0.07316931 -0.10474417 -0.09043117
000070 b2 f6 89 bd 9e 7d 9e bc 5e 8d 80 bd 82 96 0b 3d
       -0.067365065 -0.019347008 -0.06276964 0.034079082
000080 60 76 58 bc 38 ad 10 3d a4 d3 72 bc 28 03 31 bc
       -0.013211817 0.035321444 -0.014820967 -0.010803975
000090 09 c6 96 bc 25 a8 27 3d 46 c7 47 bd 27 99 d2 bc
       -0.018404977 0.04093184 -0.048774026 -0.025707794
0000a0 06 56 55 bc 15 22 83 bc a3 9e 67 bd 75 32 8d bd
       -0.013020998 -0.016007463 -0.056547772 -0.068943895
0000b0 73 35 47 bd b8 9f 7f bd ae a5 65 bd fc 21 a1 bd
       -0.048634958 -0.06240818 -0.056066208 -0.0786781
0000c0 e2 16 56 bd ff d6 ea bd 52 b6 78 bc f0 21 6d bd
       -0.052267917 -0.114667885 -0.015180187 -0.057893693
0000d0 6d 6b e2 bd ad 44 53 3c 58 15 91 bd f2 b0 19 bd
       -0.11055646 0.012894792 -0.07084149 -0.037522264
0000e0 f9 ef 02 bd f6 35 7c bd 92 71 1b bd 22 19 0f bd
       -0.031967137 -0.0615749 -0.037950106 -0.034936078
0000f0 a3 66 c1 bd bc 06 9c bd f2 b4 65 bc 0e 1e 96 bc
       -0.094434045 -0.07618472 -0.0140201915 -0.018324878

running_mean f4 [64]
000000 4b 0c 03 3f c0 b7 17 3f d2 eb 95 3e 69 42 72 be
       0.5119063 0.59264755 0.2928148 -0.23658146
000010 14 29 87 3c 88 f8 12 be 86 83 cd 3e ba f6 24 bf
       0.01649908 -0.1435262 0.40139407 -0.64438975
000020 6e 43 3e 3f 28 55 c3 3e 48 7c 06 3f 34 12 5e bf
       0.7432164 0.38150907 0.5253339 -0.86746526
000030 c4 c9 4f 3f b4 95 35 3f 44 0e 5d be ba 10 d4 3c
       0.81167245 0.70931554 -0.21587473 0.025886882
000040 ef 4f bd 3e fa 33 40 be 2d 55 55 be f0 1d 1f be
       0.36975047 -0.18769827 -0.20833273 -0.15538764
000050 05 cd 9e bd 4f 1e 0b 3f d3 fa 40 be 15 15 7a be
       -0.07753948 0.5434312 -0.18845682 -0.24422105
000060 59 af d2 bd 7c fb 2e bf cb 52 a9 3d 31 47 8f be
       -0.10287351 -0.68352485 0.08267745 -0.27984002
000070 b0 56 74 bf 13 28 da 3e c8 3b 7d be 41 e6 5d bf
       -0.95444775 0.426087 -0.24729836 -0.86679465
000080 17 a6 29 3e 2c 2e 48 bf 07 e2 4d 3f 0a b9 29 3f
       0.16567264 -0.7819545 0.80423015 0.6629797
000090 08 e7 32 3e 12 a8 73 bf 04 0c 9c 3e 7e ba a0 3e
       0.17470944 -0.9517833 0.30477917 0.31392282
0000a0 64 be 0f 3f 14 b1 b1 be 8e 5f 5a 3e f1 7d 3e bf
       0.5614989 -0.34705412 0.21325514 -0.7441092
0000b0 34 e0 f3 bd a8 bd 1e 3f 02 e0 20 3f ae ed 07 bf
       -0.11907998 0.6200814 0.6284181 -0.53097045
0000c0 7c 53 43 3f c2 b1 19 3e f6 b7 7d 3e 35 9b 05 3f
       0.7629926 0.15009215 0.24777207 0.5218995
0000d0 ad 1c 67 bf 33 00 a5 be 2c e1 19 bf 92 3b 35 3f
       -0.9027813 -0.32226714 -0.6010921 0.7079402
0000e0 b3 78 1c be 98 00 49 3f d0 48 50 3c 83 f9 5b be
       -0.15280418 0.7851653 0.012712672 -0.214819
0000f0 30 65 01 3f 68 71 94 be 65 fc 4f 3f 5b 4a af 3c
       0.50545025 -0.28992772 0.812445 0.02139776

running_var f4 [64]
000000 9c c0 17 40 1b ab 34 40 3e 89 97 3f b5 48 a1 3f
       2.371131 2.8229434 1.1838758 1.2600313
000010 1f 8a d3 3f 81 95 76 3f 9b af cf 3f 00 48 22 40
       1.6526526 0.96321875 1.6225466 2.5356445
000020 29 ae 0f 40 16 a3 9b 3f 3b cb 0d 40 3c 3f 62 40
       2.245005 1.2159145 2.2155292 3.5351095
000030 6e 1f 23 40 e3 56 2a 40 a8 fa 80 3f 99 a1 75 3f
       2.5487933 2.6615531 1.0076494 0.95949703
000040 62 62 ab 3f d3 89 a8 3f c6 da 65 3f b7 e4 7e 3f
       1.3389399 1.3167061 0.89786947 0.9956774
000050 c8 4d 8e 3f df e7 ef 3f c0 0b 68 3f a5 97 75 3f
       1.1117487 1.8742636 0.9064293 0.95934516
000060 c0 ca 84 3f 8c 44 12 40 3d 1e 7f 3f 14 ce 70 3f
       1.0374374 2.2854338 0.99655515 0.9406445
000070 76 f0 7e 40 07 ad cf 3f 01 17 a4 3f c8 b8 3b 40
       3.9834266 1.6224679 1.281952 2.9331532
000080 05 14 d8 3f ea 5f 05 40 ad af 46 40 8e 73 f9 3f
       1.688111 2.0839791 3.1044724 1.948839
000090 65 38 0c 40 2b d5 4b 40 34 30 d3 3f 77 ba ba 3f
       2.190942 3.1848857 1.6499085 1.4588155
0000a0 5a 04 34 40 4d 15 a2 3f 9b 08 a4 3f d8 cd 0f 40
       2.8127656 1.266275 1.2815126 2.2469387
0000b0 39 ab 74 3f 0e 0e 29 40 af b1 17 40 be e8 e9 3f
       0.95573765 2.6414828 2.37022 1.8274152
0000c0 18 df 9d 3f a2 12 8c 3f 0a 82 99 3f 06 34 cc 3f
       1.2333708 1.0943186 1.199281 1.5953376
0000d0 e4 80 6c 40 1a b6 d0 3f 9f 32 fb 3f 3f 68 05 40
       3.6953669 1.6305573 1.9624823 2.0844877
0000e0 fe 4a a9 3f 79 9e 22 40 94 78 ce 3f 33 34 b5 3f
       1.3226011 2.5409224 1.6130548 1.4156555
0000f0 95 70 0d 40 65 9b 81 3f 6c 1c f4 3f 39 f3 89 3f
       2.2099965 1.0125548 1.9071174 1.0777351
