savedmodel/CNNModel1.pth (torch, 190148 bytes, 30 tensors)

weight f4 [4, 3, 3, 3]
-0.16745314 0.0007221911 -0.12132924 0.14378986 -0.09535123 0.13435315 0.15666704 0.0024241523
-0.08886814 -0.0034599497 -0.08908622 -0.1508932 0.029492637 -0.013214794 0.03656884 0.182507
0.17789334 0.049190875 -0.1310717 -0.018758452 0.053559005 -0.060970865 0.023578977 -0.17124927
0.08664854 0.063446686 0.09702186 0.11899595 -0.06425496 -0.2136526 0.13615836 -0.08148974
-0.043123845 -0.15397991 0.05033554 0.19340098 0.018257054 -0.0374882 -0.20923765 -0.14518423
-0.12091289 0.044409562 0.026434606 0.07422104 0.025938608 -0.08228946 0.115316786 -0.05099797
-0.08809411 0.017031498 0.06483244 0.16403967 -0.039882608 0.078751266 0.037056733 -0.015249792
0.07676675 0.15716222 0.17368706 -0.05553115 0.14486621 -0.10912419 0.13229539 -0.15905534
-0.15590091 -0.15492152 0.07705651 -0.072176315 0.22601531 0.0389693 -0.004809434 -0.03251647
-0.05321126 0.14946681 0.22382174 0.17718348 0.021798134 0.1510678 0.009525861 -0.10338927
0.14213812 -0.19689608 -0.06823674 -0.095268615 0.11063453 -0.121490255 0.121382385 -0.17286627
-0.06605278 -0.18492636 0.09247221 -0.17112176 -0.08477485 -0.058488745 0.04806632 -0.15217619
0.003037955 -0.122922935 -0.20448877 -0.07939895 0.023628555 0.0342333 -0.1372281 -0.09636131
0.0030098266 -0.06514854 -0.19179812 -0.051524714
00000000: d678 2bbe 6d51 3d3a 777b f8bd a63d 133e
00000010: 8147 c3bd df93 093e 536d 203e 87de 1e3b
00000020: 8000 b6bd 53c0 62bb d672 b6bd bf83 1abe
00000030: 8b9a f13c dd82 58bc 35c9 153d 1de3 3a3e
00000040: ac29 363e 5f7c 493d a937 06be 53ab 99bc
00000050: b060 5b3d 96bc 79bd b328 c13c f85b 2fbe
00000060: ca74 b13d 56f0 813d 66b3 c63d 26b4 f33d
00000070: 1b98 83bd bfc7 5abe 196d 0b3e 18e4 a6bd
00000080: a1a2 30bd e9ac 1dbe a42c 4e3d e80a 463e
00000090: d18f 953c 3a8d 19bd 6542 56be 2dab 14be
000000a0: 2da1 f7bd cde6 353d 638d d83c 3301 983d
000000b0: 347d d43c 6087 a8bd 352b ec3d 3fe3 50bd
000000c0: af6a b4bd a485 8b3c dfc6 843d 04fa 273e
000000d0: f25b 23bd 5848 a13d cdc8 173d 43da 79bc
000000e0: e337 9d3d 22ef 203e 05db 313e a274 63bd
000000f0: cf57 143e 817c dfbd 7178 073e 67df 22be
00000100: 7da4 1fbe bfa3 1ebe cecf 9d3d 2dd1 93bd
00000110: 8f70 673e 469e 1f3d 7598 9dbb fd2f 05bd
00000120: 0df4 59bd d40d 193e 8731 653e 966f 353e
00000130: 0092 b23c 84b1 1a3e 5b12 1c3c c1bd d3bd
00000140: a88c 113e 209f 49be b4bf 8bbd 311c c3bd
00000150: 5b94 e23d e2cf f8bd 5497 f83d db03 31be
00000160: ae46 87bd 565d 3dbe 1262 bd3d 8b3a 2fbe
00000170: 709e adbd e591 6fbd 31e1 443d 13d4 1bbe
00000180: 6d18 473b 05bf fbbd 8165 51be eb9b a2bd
00000190: ac90 c13c 3738 0c3d 8685 0cbe 1459 c5bd
000001a0: 8340 453b 996c 85bd ba66 44be 940b 53bd

bias f4 [4]
-0.091741204 -0.12442522 0.12622826 -0.06767365
00000000: d0e2 bbbd a6d2 febd fb41 013e 7c98 8abd

weight f4 [4]
1.0829185 0.9103812 0.985639 1.0326858
00000000: 139d 8a3f be0e 693f d652 7c3f 0c2f 843f

bias f4 [4]
0.041774012 -0.034675397 0.046348337 0.13270633
00000000: 3a1b 2b3d ca07 0ebd c1d7 3d3d 2be4 073e

running_mean f4 [4]
-0.06956501 0.018584855 0.14853476 -0.25165606
00000000: 1a78 8ebd 443f 983c 7f19 183e 10d9 80be

running_var f4 [4]
0.65726405 0.6577652 0.66473836 0.6808609
00000000: 7542 283f 4d63 283f 4b2c 2a3f e64c 2e3f

weight f4 [8, 4, 3, 3]
0.0037847713 0.067429446 -0.04361016 0.18393208 0.07261614 0.1435837 0.0055673877 -0.065209955
0.12579092 -0.01705533 -0.0869673 0.08017884 -0.105724275 -0.02250595 0.034761526 -0.0055922493
-0.05509591 0.057004575 -0.18532944 -0.124069914 -0.13657662 -0.044022154 -0.17258182 0.054485526
0.00559992 0.016337728 -0.1362778 -0.13477677 -0.18287808 -0.076245196 0.14624147 0.11252317
-0.064836636 -0.09797525 -0.010490449 0.10698135 0.07006886 -0.04332394 -0.030575376 0.028514124
-0.024727743 0.080727234 -0.22323228 -0.031506095 -0.073576696 -0.14880145 -0.026044488 -0.0025213035
0.11628332 -0.16365479 -0.1481744 0.05438412 0.006601302 0.10023068 -0.16757679 -0.07944647
-0.22850429 0.16384095 -0.067437954 -0.1424711 0.09028036 -0.17997503 -0.13956147 -0.16522492
-0.15371805 0.08637727 -0.21993971 0.13989168 0.12639654 -0.15052399 0.053504393 0.045223806
-0.09468515 -0.07161559 -0.039812014 0.0053018127 0.008197577 -0.27220204 0.101376675 0.066253446
-0.24681889 0.076427326 -0.16312708 0.14958116 -0.22017872 -0.032362618 -0.060990896 0.04982173
-0.06490323 -0.080900796 -0.16655508 0.016920412 -0.21171893 0.050706904 -0.20190407 0.03509467
0.016471881 0.07718503 -0.14252087 -0.09692339 0.08847897 -0.040146735 -0.13061424 -0.25357246
0.023300812 0.09589699 0.0034224289 0.01632447 0.15406616 0.020770451 0.14312832 0.04997808
0.1349482 0.01665681 -0.014929302 0.1255918 0.02563918 -0.06403953 -0.16459812 0.096628755
-0.18572916 -0.046738163 -0.15309742 -0.09618096 -0.17240292 -0.024161465 0.118794136 0.054035068
0.023800146 -0.15835711 0.0037021202 0.112739846 -0.12522288 -0.09247999 0.11269092 0.007026064
0.10472545 0.075163774 -0.03474896 0.16837142 0.16596186 0.07568546 0.016789593 0.054000597
-0.01832094 0.00912895 0.0007741047 0.0017961112 0.012915749 -0.035227653 0.12264015 0.045107283
0.10533146 -0.11961976 0.06790116 0.11649573 0.16036129 0.15510832 -0.04049185 0.14441004
-0.03810573 -0.11171282 -0.04174914 0.13582648 0.1686366 0.078055054 0.18687905 0.109057754
0.01231055 -0.024995027 0.07760344 -0.004361234 -0.07351448 0.014350554 0.12578344 -0.008697872
0.12635462 0.12687472 0.05168036 0.036003806 0.1507705 0.26702893 0.16530842 0.18352626
-0.053614687 0.017272694 -0.028454872 0.098322414 0.028292052 0.12011567 -0.124570414 0.054255847
-0.119223565 -0.18168008 -0.15570626 -0.089334466 0.10075064 -0.021687627 -0.11471123 -0.10897046
-0.1283374 -0.17417446 -0.1674251 0.038652405 -0.018778455 -0.052201636 -0.14263457 -0.04513125
-0.033510096 -0.07054402 -0.075083666 -0.1106483 0.030201424 -0.12462286 0.04773482 0.011645804
0.1881733 0.010510966 0.002442278 0.16189168 0.05048175 0.23227012 0.1040159 -0.0147139
0.12680803 -0.008420748 -0.07367988 -0.022275852 0.04451119 -0.0874803 -0.07459502 -0.19081794
0.095293656 -0.10531086 0.0951411 0.013387403 -0.04562617 0.020076014 -0.08139099 -0.11258389
-0.16917734 -0.013319197 -0.06304805 -0.015367279 0.041750398 -0.013480107 0.081875324 0.17894128
-0.04162919 0.16749841 -0.15854159 -0.06204918 0.04799369 -0.10931344 -0.1627603 -0.20598242
00000000: ed09 783b 7318 8a3d 91a0 32bd b158 3c3e
00000010: c5b7 943d 9b07 133e a26e b63b cc8c 85bd
00000020: 56cf 003e 9fb7 8bbc e91b b2bd ce34 a43d
00000030: f885 d8bd 665e b8bc 1a62 0e3d 303f b7bb
00000040: 40ac 61bd a17d 693d 00c7 3dbe 5e18 febd
00000050: beda 0bbe 9350 34bd 4ab9 30be 372c 5f3d
00000060: 897f b73b b3d6 853c 688c 0bbe ec02 0abe
00000070: 6444 3bbe 7126 9cbd 53c0 153e 8c72 e63d
00000080: 12c9 84bd 3fa7 c8bd 22e0 2bbc 0a19 db3d
00000090: 4380 8f3d 7274 31bd 3679 fabc 7496 e93c
000000a0: d691 cabc 5254 a53d 0197 64be 890c 01bd
000000b0: 61af 96bd 685f 18be 405b d5bc 743c 25bb
000000c0: f325 ee3d 1f95 27be 08bb 17be e2c1 5e3d
000000d0: bc4f d83b be45 cd3d 4099 2bbe d5b4 a2bd
000000e0: 07fd 69be ecc5 273e e91c 8abd f2e3 11be
000000f0: e9e4 b83d 604b 38be 34e9 0ebe b930 29be
00000100: 4468 1dbe 91e6 b03d e037 61be c43f 0f3e
00000110: 186e 013e f622 1abe 6c27 5b3d 993c 393d
00000120: 4aea c1bd 32ab 92bd ec11 23bd d4ba ad3b
00000130: 214f 063c 115e 8bbe 939e cf3d e3af 873d
00000140: 17be 7cbe ee85 9c3d c90a 27be ce2b 193e
00000150: 8876 61be aa8e 04bd 97d1 79bd df11 4c3d
00000160: fceb 84bd 51af a5bd 6a8d 2abe ad9c 8a3c
00000170: d9cc 58be 0bb2 4f3d f1bf 4ebe 6ebf 0f3d
00000180: 0af0 863c 2f13 9e3d fef0 11be c57f c6bd
00000190: 7634 b53d e770 24bd bdbf 05be 40d4 81be
000001a0: 58e1 be3c a465 c43d d44a 603b e5ba 853c
000001b0: 85c3 1d3e cb26 aa3c 3b90 123e d1b5 4c3d
000001c0: dc2f 0a3e dd73 883c 089a 74bc 239b 003e
000001d0: 4209 d23c 2827 83bd 698c 28be 4ce5 c53d
000001e0: c92f 3ebe 8470 3fbd 92c5 1cbe 86fa c4bd
000001f0: 648a 30be 44ee c5bc 574a f33d e053 5d3d
00000200: 86f8 c23c 5e28 22be 459f 723b 26e4 e63d
00000210: 6d3a 00be 2666 bdbd 7fca e63d e63a e63b
00000220: 4c7a d63d 77ef 993d ed54 0ebd 8f69 2c3e
00000230: e8f1 293e fa00 9b3d 548a 893c bb2f 5d3d
00000240: cc15 96bc 9791 153c 49ed 4a3a 7e6b eb3a
00000250: 949c 533c df4a 10bd c22a fb3d 6ac2 383d
00000260: 05b8 d73d 34fb f4bd c30f 8b3d 5095 ee3d
00000270: c035 243e b7d4 1e3e c8da 25bd 3ae0 133e
00000280: c114 1cbd b1c9 e4bd 2501 2bbd 1916 0b3e
00000290: 13af 2c3e 54db 9f3d 395d 3f3e ac59 df3d
000002a0: 30b2 493c 5fc2 ccbc 8dee 9e3d afe8 8ebb
000002b0: c28e 96bd 961e 6b3c 60cd 003e 8581 0ebc
000002c0: 1b63 013e 72eb 013e c9ae 533d ba78 133d
000002d0: 9563 1a3e 04b8 883e 9c46 293e 4fee 3b3e
000002e0: 139b 5bbd 777f 8d3c 311a e9bc 435d c93d
000002f0: bcc4 e73c 34ff f53d c61e ffbd 613b 5e3d
00000300: 7c2b f4bd 580a 3abe 7671 1fbe fdf4 b6bd
00000310: 5a56 ce3d 40aa b1bc b9ed eabd e82b dfbd
00000320: e16a 03be ca5a 32be 7c71 2bbe fc51 1e3d
00000330: 46d5 99bc 62d1 55bd cc0e 12be 8cdb 38bd
00000340: e241 09bd 6279 90bd 77c5 99bd 939b e2bd
00000350: fa68 f73c 453a ffbd 9685 433d 0bce 3e3c
00000360: 80b0 403e 3036 2c3c a00e 203b efc6 253e
00000370: f4c5 4e3d 38d8 6d3e 4a06 d53d 9212 71bc
00000380: f7d9 013e 2df7 09bc 7ae5 96bd d97b b6bc
00000390: 5e51 363d df28 b3bd 46c5 98bd c765 43be
000003a0: 5229 c33d 38ad d7bd 56d9 c23d d756 5b3c
000003b0: 82e2 3abd 7476 a43c 52b0 a6bd 6292 e6bd
000003c0: d33c 2dbe c338 5abc 561f 81bd 0ac7 7bbc
000003d0: 7702 2b3d abdb 5cbc 40ae a73d 623c 373e
000003e0: 5f83 2abd b484 2b3e ba58 22be 4827 7ebd
000003f0: 0895 443d badf dfbd a3aa 26be 0eed 52be

bias f4 [8]
-0.07788245 0.044131372 -0.0840432 0.08606948 0.13354759 0.0036149854 0.12245084 0.0071314485
00000000: d580 9fbd 19c3 343d d71e acbd 3245 b03d
00000010: b3c0 083e 64e9 6c3b 82c7 fa3d edae e93b

weight f4 [8]
0.9840306 0.9176121 0.93308854 0.99734515 0.98967844 0.9833498 0.98821074 0.96431637
00000000: 6ee9 7b3f a0e8 6a3f e4de 6e3f 0352 7f3f
00000010: 915b 7d3f d0bc 7b3f 61fb 7c3f 70dd 763f

bias f4 [8]
0.092629395 0.0005746035 -0.061161853 0.022296658 0.018954009 -0.041706555 0.01938087 0.10267311
00000000: 7bb4 bd3d fda0 163a da84 7abd 7ba7 b63c
00000010: 7045 9b3c 7ed4 2abd a1c4 9e3c 4846 d23d

running_mean f4 [8]
-0.065110914 0.01800807 -0.028369017 0.10954702 0.30696493 -0.11475504 0.039940245 -0.11858326
00000000: df58 85bd a985 933c 2466 e8bc 305a e03d
00000010: 822a 9d3e b104 ebbd 6298 233d c8db f2bd

running_var f4 [8]
0.6845897 0.755841 0.7536139 0.75120884 0.78394663 0.72214854 0.68192476 0.7284918
00000000: 4541 2f3f cc7e 413f d7ec 403f 394f 403f
00000010: bab0 483f bade 383f 9f92 2e3f 707e 3a3f

weight f4 [16, 8, 3, 3]
-0.026241746 -0.006283338 -0.13071096 -0.009279658 -0.033810187 -0.08325656 -0.025453197 0.085932985
0.00076523784 -0.17404923 -0.036885384 -0.03930601 -0.033909008 0.054718077 -0.044332318 -0.13032228
-0.067372166 0.17989865 -0.087038755 -0.08538328 -0.004808786 -0.06764081 -0.055575594 0.027176753
0.0012054044 0.1384693 0.025650978 0.05142854 0.006721579 -0.12281156 -0.056446217 0.025036488
0.056493048 -0.023398852 -0.03507898 0.0025783859 -0.10517589 0.10503782 -0.12828882 0.095668875
0.011144532 -0.09632757 -0.122951336 -0.056170546 0.03064743 0.11320016 -0.024142526 0.0656843
-0.08702202 -0.11692987 0.062981874 0.010338003 0.04404388 0.00043716616 -0.12449123 -0.09909346
0.056828324 0.065477476 -0.0106783975 -0.13179892 -0.12033817 0.12171761 -0.061822303 0.02237703
-0.07243704 0.067151874 -0.064891495 0.033806834 -0.09437697 -0.0043346807 -0.14573443 -0.014592931
-0.07437693 -0.15251079 0.037241865 0.036752872 0.004715971 -0.037521813 0.038646907 -0.10392255
-0.040402286 0.052581303 0.07470866 0.0031388684 -0.08805232 0.032649007 0.035518404 0.04580021
-0.11179163 0.03011052 -0.079498455 0.019876715 -0.073001 -0.0008370209 0.07819934 0.102925286
-0.013583764 -0.03955949 0.029484227 0.039705746 -0.039074708 -0.016294574 0.03326593 -0.09698804
0.10014778 0.035458736 -0.053654782 -0.031234792 -0.03617075 -0.1517123 -0.018618288 -0.082678385
-0.19683456 -0.074837014 -0.12786554 -0.15118313 0.012145637 0.054034863 0.001682671 0.12865476
-0.042549778 0.13140433 0.048693106 0.03034486 -0.019299906 -0.07321335 -0.061294515 0.0072779707
-0.040318325 -0.037557006 -0.094129935 -0.1364828 -0.03400768 0.01423418 -0.033282284 -0.113804914
-0.18950942 -0.11681658 -0.12672879 -0.029849416 -0.12552965 -0.02289049 -0.026141472 -0.076499484
0.04758772 0.07805464 -0.021343697 0.12947637 -0.021935511 -0.02540174 0.028495844 -0.0671693
-0.03759355 0.05032586 0.006141757 0.030572414 -0.09543661 0.065987706 -0.13297527 0.0004277635
0.02155446 -0.03904351 -0.045365106 -0.01151026 -0.0077113593 -0.1200274 -0.19364494 -0.02203712
-0.21620004 -0.1095578 -0.09743221 -0.16254964 -0.0872232 -0.119528376 -0.16265877 -0.13855453
-0.11050263 -0.12245405 -0.06334162 -0.16790481 -0.17975731 -0.02613213 -0.09164343 -0.025564928
-0.09289084 -0.1659826 -0.13692228 -0.21350183 -0.16044396 0.0056970306 -0.1387108 -0.08423908
0.0832401 0.025958816 -0.046288155 0.036584176 -0.176207 0.0010934123 -0.09290146 0.039463926
-0.08007737 -0.050383218 -0.11422935 0.09716931 0.05206032 -0.07742165 0.08671034 -0.17621233
-0.15595968 -0.07637224 -0.11482924 -0.17331178 -0.041939992 -0.18539435 -0.010633537 -0.10452888
0.043079715 0.13751577 0.0009137829 0.15382174 0.013743229 -0.0056721414 -0.039377075 0.11911616
0.064786196 -0.020998597 0.09901266 -0.06194386 0.08785671 -0.10550665 -0.099389 0.0078138225
0.028581327 0.06791904 -0.14152883 -0.009791646 0.05709341 -0.0021191589 -0.031940755 0.031639908
0.008111139 -0.029442685 -0.12264137 0.10360638 0.012041121 0.04691225 -0.10290578 -0.08372467
0.09631615 0.087613955 -0.08611139 0.06987337 0.100823455 0.08983707 -0.031633426 0.071223274
00000000: eef8 d6bc 76e4 cdbb 18d9 05be b509 18bc
00000010: 8d7c 0abd 6a82 aabd 3983 d0bc a2fd af3d
00000020: 3e9a 483a f639 32be 2115 17bd 57ff 20bd
00000030: 2ce4 0abd 1020 603d ce95 35bd 3473 05be
00000040: 6bfa 89bd 5a37 383e 6041 b2bd 6edd aebd
00000050: 0593 9dbb 4487 8abd 3ca3 63bd c8a1 de3c
00000060: a9fe 9d3a e5ca 0d3e 0022 d23c bca6 523d
00000070: b140 dc3b a184 fbbd 2634 67bd 5219 cd3c
00000080: 4165 673d f3ae bfbc faae 0fbd 23fa 283b
00000090: 7566 d7bd 121e d73d 255e 03be 0bee c33d
000000a0: 8e97 363c 6447 c5bd e9cd fbbd 1613 66bd
000000b0: 5210 fb3c 7cd5 e73d 8cc6 c5bc 7e85 863d
000000c0: 9a38 b2bd ed78 efbd a4fc 803d ba60 293c
000000d0: 5b67 343d 7333 e539 42f5 febd 83f1 cabd
000000e0: d1c4 683d 0e19 863d 72f4 2ebc 4cf6 06be
000000f0: dc73 f6bd 1547 f93d 6239 7dbd 0950 b73c
00000100: df59 94bd ec86 893d d5e5 84bd 0979 0a3d
00000110: b648 c1bd f009 8ebb 683b 15be 3017 6fbc
00000120: ef52 98bd ca2b 1cbe ed8a 183d 2e8a 163d
00000130: 6f88 9a3b 79b0 19bd 384c 1e3d 59d5 d4bd
00000140: de7c 25bd 7e5f 573d db00 993d 79b5 4d3b
00000150: c654 b4bd f7ba 053d bf7b 113d 0099 3b3d
00000160: 03f3 e4bd 56aa f63c 16d0 a2bd 7ed4 a23c
00000170: 8c81 95bd 866b 5bba fa26 a03d 7eca d23d
00000180: 708e 5ebc 2209 22bd e888 f13c 7ea2 223d
00000190: cd0c 20bd 337c 85bc db41 083d aaa1 c6bd
000001a0: 471a cd3d 2e3d 113d 1ec5 5bbd 1be0 ffbc
000001b0: c827 14bd 785a 1bbe 6185 98bc 4953 a9bd
000001c0: 008f 49be 2644 99bd 2fef 02be c0cf 1abe
000001d0: 7efe 463c a953 5d3d 128d dc3a 13be 033e
000001e0: ad48 2ebd db8e 063e 6c72 473d c995 f83c
000001f0: d61a 9ebc e1f0 95bd f50f 7bbd 0b7c ee3b
00000200: d424 25bd 60d5 19bd 32c7 c0bd 26c2 0bbe
00000210: a34b 0bbd 7a36 693c 0153 08bd 8d12 e9bd
00000220: c20e 42be 883d efbd 31c5 01be c386 f4bc
00000230: d88a 00be d684 bbbc a426 d6bc c3ab 9cbd
00000240: 57eb 423d 1cdb 9f3d fad8 aebc 7495 043e
00000250: 1ab2 b3bc 4f17 d0bc 1e70 e93c 0f90 89bd
00000260: b2fb 19bd 7d22 4e3d cb40 c93b 0073 fa3c
00000270: 4574 c3bd 9024 873d ab2a 08be 7245 e039
00000280: fb92 b03c 16ec 1fbd c3d0 39bd 8895 3cbc
00000290: 92af fcbb edd0 f5bd dc4a 46be 3187 b4bc
000002a0: 8b63 5dbe d75f e0bd 8a8a c7bd 6a73 26be
000002b0: 14a2 b2bd 4bcb f4bd 0590 26be 3de1 0dbe
000002c0: 344f e2bd 30c9 fabd 40b9 81bd 3def 2bbe
000002d0: 4d12 38be 0c13 d6bc 8daf bbbd 8a6d d1bc
000002e0: 8d3d bebd 58f7 29be 5b35 0cbe 39a0 5abe
000002f0: 6c4b 24be 28ae ba3b 340a 0ebe 8a85 acbd
00000300: c979 aa3d 95a7 d43c a698 3dbd 4ad9 153d
00000310: 9c6f 34be d450 8f3a 1f43 bebd eda4 213d
00000320: 9bff a3bd a25e 4ebd 14f1 e9bd b400 c73d
00000330: 343d 553d 3e8f 9ebd 3195 b13d 0171 34be
00000340: e5b3 1fbe 0d69 9cbd 982b ebbd a578 31be
00000350: 45c9 2bbd 04d8 3dbe 4938 2ebc 3d13 d6bd
00000360: 5b74 303d efd0 0c3e ef8a 6f3a 7283 1d3e
00000370: 482b 613c 5fdd b9bb db49 21bd 2cf3 f33d
00000380: a0ae 843d 4005 acbc 26c7 ca3d d8b8 7dbd
00000390: 38ee b33d df13 d8bd 768c cbbd 8c05 003c
000003a0: 6323 ea3c 2319 8b3d efec 10be 246d 20bc
000003b0: c8da 693d 96e1 0abb 4fd4 02bd d998 013d
000003c0: 95e4 043c c931 f1bc 662b fbbd 952f d43d
000003d0: 1f48 453c 0f27 403d 44c0 d2bd d777 abbd
000003e0: 6741 c53d f26e b33d 2b5b b0bd c519 8f3d
000003f0: 877c ce3d 7ffc b73d 0d92 01bd 82dd 913d

bias f4 [16]
-0.13042355 0.058671344 -0.1223687 0.02888644 -0.035039116 0.112799674 -0.08870814 -0.07022664
0.101144165 0.0013897355 -0.07544474 0.078586295 -0.08233015 0.0052262703 0.03066813 -0.107693575
00000000: c08d 05be 5d51 703d 719c fabd 41a3 ec3c
00000010: 2d85 0fbd 8403 e73d 9dac b5bd fcd2 8fbd
00000020: ac24 cf3d c927 b63a c682 9abd daf1 a03d
00000030: b69c a8bd 2241 ab3b bb3b fb3c 738e dcbd

weight f4 [16]
1.0124706 0.9560505 0.97751147 0.9956682 0.8898953 0.9710257 0.9088273 0.95555955
1.0596147 1.0668283 0.99525684 0.965478 0.92956823 1.0148772 1.003013 0.90184057
00000000: a398 813f babf 743f 313e 7a3f 1ce4 7e3f
00000010: 2ed0 633f 2495 783f e8a8 683f 8d9f 743f
00000020: 74a1 873f d48d 883f 27c9 7e3f 9129 773f
00000030: 2ff8 6d3f 7fe7 813f bb62 803f 06df 663f

bias f4 [16]
0.010784999 -0.015546118 -0.03805285 0.018314833 -0.08486349 0.037123546 -0.054695155 -0.053608462
0.057621296 0.06885419 0.0408543 0.047399316 -0.058605183 0.03221883 0.02110193 -0.04100294
00000000: 90b3 303c 25b5 7ebc 4edd 1bbd fd08 963c
00000010: e9cc adbd dc0e 183d 0708 60bd 8c94 5bbd
00000020: 4f04 6c3d 6d03 8d3d d756 273d c925 423d
00000030: fd0b 70bd e4f7 033d f4dd ac3c b3f2 27bd

running_mean f4 [16]
-0.11517715 0.022870447 -0.2528635 0.0101597225 0.38262063 -0.14982308 -0.046797305 -0.09876421
0.060012788 0.06901663 -0.073394746 -0.0007348787 -0.37607765 0.023006815 -0.015616421 -0.22801453
00000000: ffe1 ebbd ce5a bb3c 5377 81be f774 263c
00000010: dae6 c33e 396b 19be 88ae 3fbd e444 cabd
00000020: f8cf 753d 9758 8d3d fc4f 96bd e0a4 40ba
00000030: 408d c0be ca78 bc3c 04dc 7fbc a47c 69be

running_var f4 [16]
0.79164124 0.7426657 0.81347483 0.7641792 1.0058026 0.8148124 0.8170212 0.8171921
0.77839446 0.7792518 0.74289787 0.7689906 0.99774396 0.7573068 0.7492381 0.8141635
00000000: 00a9 4a3f 571f 3e3f e33f 503f 40a1 433f
00000010: 24be 803f 8c97 503f 4d28 513f 8033 513f
00000020: dc44 473f 0c7d 473f 8e2e 3e3f 91dc 443f
00000030: 266c 7f3f dcde 413f 11ce 3f3f 056d 503f

weight f4 [32, 16, 3, 3]
0.038431566 -0.120803416 -0.017302055 -0.009448179 -0.116311364 -0.14389096 0.015501104 0.033343986
-0.114726715 0.0043622125 0.038407855 -0.12940885 0.03987749 0.057368983 -0.0033081665 -0.007902845
-0.057835177 0.030372137 0.026349304 -0.09470689 0.036481086 0.028524462 0.014635108 -0.023441302
-0.091243334 -0.093475655 -0.11831725 0.023049897 -0.04051375 0.021685986 -0.051190857 -0.058045737
-0.11729365 -0.01481924 -0.13975562 -0.06812565 -0.081089966 0.0022478825 -0.0209488 -0.06345195
0.041075267 -0.025521992 -0.008297943 -0.09724362 -0.0697491 -0.047341343 -0.039556783 -0.017256705
-0.15500508 -0.087681375 -0.056953892 -0.07168672 -0.13418393 -0.13611004 -0.107114755 -0.0151321525
-0.088848546 -0.12550817 -0.025699787 -0.08373343 -0.06235221 -0.033345345 -0.040892478 -0.0033291043
0.06307242 0.016255772 -5.1437753e-05 0.06787659 -0.11013386 0.008372926 -0.031128611 0.029018566
-0.059207305 -0.17342454 -0.06749767 -0.13215192 -0.059516974 -0.08286364 -0.05986416 -0.08760108
-0.12705502 0.045349397 -0.0013459153 -0.1236601 -0.040767234 -0.07890032 -0.11514271 -0.11871148
-0.056457903 -0.12625594 -0.13340105 -0.123939104 -0.11365171 -0.14746407 -0.007401566 -0.014957616
-0.14704143 -0.05955492 -0.077393696 0.045176238 0.056833588 -0.10544407 0.0070321145 -0.038061313
-0.08645517 -0.1267808 -0.040394664 -0.03474982 -0.043286845 -0.13622795 -0.031738773 -0.014624285
0.022682434 -0.11228241 -0.00950441 -0.031349994 -0.020933446 -0.1695311 -0.059404086 -0.16914305
-0.050022062 -0.02319259 -0.1445401 -0.07811623 -0.011194772 -0.057492305 -0.12153902 -0.0142093515
-0.1537632 -0.0701129 -0.09642793 -0.11252261 -0.120363526 -0.02550755 -0.09249045 -0.01398478
-0.17479001 -0.024975285 -0.030337455 -0.076800145 -0.027237952 -0.0031917104 -0.13712098 -0.1380821
-0.039251897 -0.08029673 0.0053700614 -0.108626924 -0.13148543 -0.016802024 -0.11323896 0.012699874
-0.031376127 -0.0810617 -0.12720804 0.019944007 0.028376214 -0.064291395 0.059483066 -0.050113644
-0.024521079 -0.03294679 0.0064164517 0.11285626 0.10791643 0.024937829 0.050446473 0.020276409
0.11705262 0.003628037 0.08747023 0.0014632427 -0.0917011 -0.050370842 -0.12894356 0.008270223
-0.08257646 -0.11658246 -0.06720257 -0.055737417 -0.010872592 0.018346917 -0.026797298 0.03276559
-0.07606918 0.04413432 0.025937354 -0.048864 -0.053593706 0.00020205934 -0.00307887 0.0034131233
-0.12006802 -0.028082287 -0.05262998 -0.033570305 -0.03350666 -0.009232047 0.0073001278 -0.09277204
-0.026693355 -0.043126065 0.007144268 -0.014651777 -0.099629186 -0.12798655 0.01041309 -0.027026065
0.045086697 0.06878948 0.022390373 -0.0026574624 0.047367558 -0.038111664 -0.026473437 -0.04157485
-0.045798477 0.03598604 -0.0833655 -0.09108439 0.007366463 -0.0695528 -0.12603107 -0.121279016
0.026134035 0.014805304 0.04455929 -0.028451944 -0.06138993 -0.121931225 -0.022917503 0.01297145
-0.09979311 -0.13261588 -0.00066393195 -0.08518718 -0.11134029 -0.027447894 0.016981823 -0.1376677
-0.10595441 0.007351357 0.020313991 -0.061789595 0.038490742 -0.0573581 -0.09690021 -0.12028545
0.021629112 -0.031006806 0.037834663 -0.06945106 0.057281543 -0.0027466996 -0.05541494 0.032041352
00000000: 6b6a 1d3d c867 f7bd 0abd 8dbc 89cc 1abc
00000010: a734 eebd 2758 13be 58f8 7d3c b493 083d
00000020: d7f5 eabd e4f0 8e3b 8e51 1d3d c183 04be
00000030: 9456 233d bdfb 6a3d d3cd 58bb ef7a 01bc
00000040: 94e4 6cbd fdce f83c 7fda d73c b0f5 c1bd
00000050: 316d 153d 22ac e93c 18c8 6f3c f907 c0bc
00000060: c9dd babd 2a70 bfbd 5050 f2bd 23d3 bc3c
00000070: bff1 25bd cfa6 b13c 81ad 51bd 5ec1 6dbd
00000080: a737 f0bd 66cc 72bc 191c 0fbe 7685 8bbd
00000090: 7f12 a6bd 3651 133b d19c abbc 19f3 81bd
000000a0: 8a3e 283d 7f13 d1bc 18f4 07bc aa27 c7bd
000000b0: 9ed8 8ebd ffe8 41bd 4b06 22bd ef5d 8dbc
000000c0: a7b9 1ebe 4b92 b3bd 7c48 69bd 7dd0 92bd
000000d0: 8367 09be 6e60 0bbe fb5e dbbd d9ec 77bc
000000e0: 3af6 b5bd 3785 00be 5c88 d2bc 6f7c abbd
000000f0: 0865 7fbd 2195 08bd df7e 27bd 1a2d 5abb
00000100: 1d2c 813d d32a 853c debe 57b8 e202 8b3d
00000110: dc8d e1bd 992e 093c 6e01 ffbc 58b8 ed3c
00000120: 5c83 72bd 3496 31be 383c 8abd d552 07be
00000130: 12c8 73bd 69b4 a9bd 1f34 75bd 3268 b3bd
00000140: b61a 02be 4ac0 393d 6c69 b0ba 8241 fdbd
00000150: 8bfb 26bd 7e96 a1bd f1cf ebbd 011f f3bd
00000160: 6740 67bd 3d49 01be 499a 08be c9d3 fdbd
00000170: 3ac2 e8bd d200 17be d688 f2bb ca10 75bc
00000180: 0792 16be dcef 73bd 9680 9ebd b80a 393d
00000190: 56ca 683d 10f3 d7bd a76d e63b 2ee6 1bbd
000001a0: 680f b1bd d3d2 01be e074 25bd d455 0ebd
000001b0: 8c4d 31bd 577f 0bbe 8400 02bd b29a 6fbc
000001c0: 83d0 b93c 52f4 e5bd 63b8 1bbc da68 00bd
000001d0: 9e7c abbc 9099 2dbe b351 73bd d633 2dbe
000001e0: efe3 4cbd 63fe bdbc 5202 14be 67fb 9fbd
000001f0: 476a 37bc 0d7d 6bbd 73e9 f8bd 57ce 68bc
00000200: 1a74 1dbe 5a97 8fbd 027c c5bd 4172 e6bd
00000210: 2781 f6bd 36f5 d0bc a26b bdbd 6b20 65bc
00000220: 27fc 32be f898 ccbc 4186 f8bc 6549 9dbd
00000230: 2022 dfbc 042c 51bb 7169 0cbe 6565 0dbe
00000240: 99c6 20bd 9d72 a4bd 57f7 af3b cb77 debd
00000250: 1ea4 06be 66a4 89bc d4e9 e7bd 2213 503c
00000260: 4184 00bd ad03 a6bd d342 02be 9d61 a33c
00000270: 3c75 e83c 35ab 83bd 84a4 733d f743 4dbd
00000280: 6ee0 c8bc 37f3 06bd 1941 d23b 2f21 e73d
00000290: 4a03 dd3d 6b4a cc3c f6a0 4e3d b61a a63c
000002a0: 49b9 ef3d 5cc4 6d3b 9823 b33d 47ca bf3a
000002b0: c9cd bbbd a851 4ebd c809 04be d47f 073c
000002c0: d91d a9bd c9c2 eebd 80a1 89bd eb4c 64bd
000002d0: f522 32bc 464c 963c 0286 dbbc 3635 063d
000002e0: 29ca 9bbd 30c6 343d 937a d43c 9e25 48bd
000002f0: 1385 5bbd e4df 5339 dec6 49bb b5ae 5f3b
00000300: 39e6 f5bd d30c e6bc 8992 57bd 0481 09bd
00000310: 483e 09bd 0342 17bc e935 ef3b 44ff bdbd
00000320: 06ac dabc f5a4 30bd 771a ea3b 020e 70bc
00000330: 630a ccbd e80e 03be aa9b 2a3c c465 ddbc
00000340: d4ac 383d 80e1 8c3d 046c b73c d228 2ebb
00000350: 7c04 423d fa1a 1cbd d2de d8bc 644a 2abd
00000360: 2f97 3bbd 1966 133d 88bb aabd 748a babd
00000370: 5f62 f13b b371 8ebd 4a0e 01be 2261 f8bd
00000380: 0b17 d63c f291 723c cd83 363d 0d14 e9bc
00000390: 0274 7bbd 14b7 f9bd 7dbd bbbc 3486 543c
000003a0: 5460 ccbd 75cc 07be b80b 2eba 9e76 aebd
000003b0: 6106 e4bd 68da e0bc 771d 8b3c c3f8 0cbe
000003c0: a0fe d8bd a7e3 f03b 8769 a63c 1617 7dbd
000003d0: 78a8 1d3d 54f0 6abd 9e73 c6bd 3858 f6bd
000003e0: 892f b13c fc01 febc 85f8 1a3d 5b3c 8ebd
000003f0: 0da0 6a3d f901 34bb c7fa 62bd cb3d 033d

bias f4 [32]
-0.122516625 0.06529546 -0.088837065 0.011816135 0.028225144 0.014016078 -1.750287e-05 -0.065028526
-0.07947202 -0.0045539145 -0.0036030363 -0.073554344 -0.09312619 0.014781038 0.032849677 0.026303684
-0.06945119 -0.029439269 0.061875865 -0.107271835 0.026225086 -0.055245392 0.030309109 -0.0059160767
-0.017278789 0.074237004 0.08902299 0.09889345 -0.03270615 0.0030804712 0.05979189 -0.08123947
00000000: ffe9 fabd a0b9 853d 35f0 b5bd 7698 413c
00000010: 6b38 e73c b1a3 653c 21d3 92b7 ad2d 85bd
00000020: 3ac2 a2bd 0139 95bb eb20 6cbb a9a3 96bd
00000030: f2b8 bebd 2b2c 723c 628d 063d d37a d73c
00000040: 6d3c 8ebd 9f2a f1bc 8c71 7d3d 56b1 dbbd
00000050: fed5 d63c fe48 62bd cf4a f83c a6db c1bb
00000060: 3f8c 8dbc 9209 983d af51 b63d a688 ca3d
00000070: e2f6 05bd bbe1 493b 57e8 743d e160 a6bd

weight f4 [32]
0.9703233 0.9601347 0.978699 0.98239374 0.9727228 0.94456077 1.0063716 0.93354154
0.9826722 0.97474134 0.97353804 0.98003113 0.94421047 0.9836124 0.95110816 0.97477627
0.9401917 0.9656768 0.962448 0.99841905 0.97562945 0.9604655 1.013259 0.9620791
0.9829455 0.96008474 0.9630388 0.93773335 0.972022 0.9825934 0.9701554 0.98436934
00000000: 1c67 783f 63cb 753f 058c 7a3f 287e 7b3f
00000010: 5d04 793f bcce 713f c9d0 803f 94fc 6e3f
00000020: 6890 7b3f a688 793f ca39 793f 52e3 7a3f
00000030: c7b7 713f 06ce 7b3f d37b 733f f08a 793f
00000040: 67b0 703f 9836 773f fe62 763f 6498 7f3f
00000050: dac2 793f 11e1 753f 79b2 813f d14a 763f
00000060: 51a2 7b3f 1dc8 753f b689 763f 4b0f 703f
00000070: 6fd6 783f 3e8b 7b3f 1b5c 783f a1ff 7b3f

bias f4 [32]
-0.008660966 0.025916424 -0.0069554267 -0.0035905174 0.006628314 -0.045989145 0.027224047 -0.015774352
0.02019816 0.018237252 -0.0091897445 -0.017258495 -0.034362692 0.013135399 0.017032165 -0.0027660597
-0.00041192782 -0.011814749 -0.023520268 -0.032735888 0.032354057 -0.020532947 0.059240796 -0.021520816
-0.020165285 0.026196739 0.0078816125 0.04188516 -0.006970534 0.020957991 0.017198473 0.030535134
00000000: b9e6 0dbc ae4e d43c 59ea e3bb e34e 6bbb
00000010: 5432 d93b 1d5f 3cbd f704 df3c 3739 81bc
00000020: 9d76 a53c 4a66 953c 9590 16bc b061 8dbc
00000030: e5bf 0cbd db35 573c 0a87 8b3c c846 35bb
00000040: 04f8 d7b9 a692 41bc 94ad c0bc 1116 06bd
00000050: b085 043d b634 a8bc 7aa6 723d 6c4c b0bc
00000060: ab31 a5bc 8b9a d63c e121 013c c68f 2b3d
00000070: 1469 e4bb 18b0 ab3c d0e3 8c3c d124 fa3c

running_mean f4 [32]
-0.11518504 -0.23248419 -0.10411313 -0.1459696 0.17499876 -0.18186681 0.080884606 -0.26345804
-0.12175462 -0.20445105 0.060180545 0.120226935 -0.18344483 -0.28910527 0.03696712 -0.28687608
-0.022657998 -0.3608744 -0.11730327 0.054692127 -0.092071995 -0.10624203 -0.26663482 0.007125348
-0.16266486 -0.20981947 -0.26021716 -0.18461502 0.2721521 0.0838985 0.19257769 -0.328368
00000000: 22e6 ebbd 5610 6ebe 4439 d5bd 0e79 15be
00000010: e032 333e 4b3b 3abe d4a6 a53d f9e3 86be
00000020: 7c5a f9bd 9e5b 51be e07f 763d 8a39 f63d
00000030: f6d8 3bbe 9b05 94be d66a 173d 6ce1 92be
00000040: 449d b9bc 88c4 b8be b23c f0bd da04 603d
00000050: 3e90 bcbd 6c95 d9bd 5c84 88be c07b e93b
00000060: 9e91 26be eada 56be 2f3b 85be b80b 3dbe
00000070: 8557 8b3e fad2 ab3d 1633 453e da1f a8be

running_var f4 [32]
0.8476158 0.84139454 0.7719014 0.78884125 0.777377 0.79450953 0.75512147 0.7737874
0.793086 0.7748617 0.7917963 0.77947325 0.9172873 0.7848504 0.7669244 0.79508555
0.7809192 0.9662976 0.78361815 0.7648789 0.7637874 0.76720536 0.76980466 0.78848904
0.7817087 0.8001256 0.78444844 0.7879246 0.7935481 0.7549257 0.8061343 0.82951146
00000000: 59fd 583f a265 573f 559b 453f 80f1 493f
00000010: 2e02 473f fa64 4b3f a44f 413f ee16 463f
00000020: af07 4b3f 565d 463f 2ab3 4a3f 8f8b 473f
00000030: 57d3 6a3f f5eb 483f 2855 443f ba8a 4b3f
00000040: 52ea 473f 485f 773f 339b 483f 1bcf 433f
00000050: 9287 433f 9267 443f eb11 453f 6bda 493f
00000060: 101e 483f 08d5 4c3f 9dd1 483f 6db5 493f
00000070: f825 4b3f d042 413f d15e 4e3f dd5a 543f

weight f4 [128, 32, 3, 3]
-0.03927083 0.031613626 -0.029790541 -0.07745842 -0.024515199 -0.087836504 -0.0162381 -0.059075195
-0.025532385 -0.10843925 -0.087662116 -0.06082914 -0.096084625 -0.063964516 -0.001353746 -0.07223229
-0.11502505 -0.036207207 -0.02417347 0.007538293 -0.09843826 -0.07696749 -0.09076793 0.040040787
-0.10478126 -0.102954894 -0.057539508 -0.062242724 -0.00718228 0.016833546 0.0033632235 0.02955993
-0.012136402 -0.047092192 -0.072510116 -0.08890832 -0.005043534 -0.11333094 -0.047336977 -0.038891837
-0.106048815 0.002205377 -0.08289225 -0.051587563 -0.018722232 -0.06422817 -0.064549506 -0.07747353
-0.12902392 -0.051542144 -0.045972943 -0.08065711 -0.057134975 -0.12190384 -0.040399034 -0.08736825
0.012091916 -0.023887306 -0.09586214 -0.09294305 0.004666244 -0.070470996 -0.06853201 -0.012671447
-0.09555054 0.021964718 -0.083859935 -0.057588443 0.013642008 -0.04514637 -0.07073505 -0.13677485
-0.049659733 -0.028917842 0.042270303 0.038642086 -0.0035115883 0.04298876 -0.026140528 -0.012788016
-0.045699205 -0.05504598 -0.093258135 -0.042480726 -0.13811 -0.100749455 -0.08121994 -0.021133166
-0.028265545 -0.06819557 -0.040381614 0.011447228 -0.087683536 -0.049936295 -0.07014548 -0.025691077
-0.08258467 -0.06891593 -0.010020405 -0.0661628 -0.0835083 -0.008244587 -0.116921484 -0.09135548
0.015026414 -0.03946744 -0.00069455995 -0.12137846 0.011420243 -0.12294402 0.009280785 -0.06446393
-0.0718665 -0.008881377 -0.01613332 -0.082448535 -0.03670524 -0.010175029 -0.024130316 -0.0064988825
-0.014258793 -0.028437285 -0.070819944 -0.08475924 0.008142881 -0.009948551 0.01868395 -0.059938278
-0.10787986 -0.027234403 -0.1187965 -0.009828937 0.008304168 -0.04127419 -0.040698882 -0.07539451
-0.10387297 0.007525472 -0.027381178 -0.101517946 -0.10015387 -8.4849955e-05 0.0015741263 0.0021234327
-0.04644053 0.0026090245 -0.055796273 -0.031014334 -0.028135026 0.043343693 0.016437404 -0.05671158
0.04238872 0.044472337 -0.03754605 0.03116197 -0.08415643 -0.039120845 -0.048488602 -0.108067244
-0.025285505 -0.07974934 -0.07141228 -0.019616101 -0.06147604 -0.048121855 -0.03345874 0.03804099
0.0035225046 -0.069155335 -0.039725218 -0.08074637 -0.026122196 -0.03003234 -0.05432843 -0.008011084
-0.03409065 -0.055503435 -0.06491165 -0.009592156 -0.07424522 -0.037548248 -0.08584103 -0.026605317
-0.008740248 -0.047246493 -0.011125463 -0.084485896 -0.10878735 -0.008258207 -0.021754878 -0.08657453
-0.1003235 -0.07692972 -0.016689822 -0.049615823 -0.10736997 -0.1228218 -0.075691074 -0.08689655
-0.076643266 -0.009242509 -0.093764156 0.01523241 -0.044016577 -0.06107269 -0.091730684 -0.05494886
0.00296444 -0.054917764 -0.05541756 0.009900636 -0.08117456 -0.097144306 -0.015629759 0.011651394
-0.07876935 0.015879594 -0.08809898 -0.016475672 0.03237551 0.021146117 -0.10424277 -0.110844426
-0.06291375 -0.012535417 -0.0604339 -0.03447772 -0.063955665 -0.0011005169 -0.068154074 -0.088031776
-0.097140476 -0.09219295 -0.074683174 0.011413785 -0.031897023 -0.06257455 -0.09519096 -0.04434639
-0.07680959 0.0016136067 -0.052090213 -0.071522996 -0.020153424 -0.012901139 -0.10084622 -0.09877512
-0.10146341 -0.13184951 -0.034555417 -0.021913568 -0.029698515 -0.056023218 -0.009409389 -0.028460043
00000000: 73da 20bd 4a7d 013d 4b0b f4bc 85a2 9ebd
00000010: 19d4 c8bc a0e3 b3bd c405 85bc d5f8 71bd
00000020: 4b29 d1bc 6615 debd 3288 b3bd fa27 79bd
00000030: 04c8 c4bd d4ff 82bd 2e70 b1ba 86ee 93bd
00000040: 4192 ebbd 024e 14bd 7107 c6bc c903 f73b
00000050: 009a c9bd 22a1 9dbd 89e4 b9bd cf01 243d
00000060: 8f97 d6bd 04da d2bd 8cae 6bbd 3af2 7ebd
00000070: 5559 ebbb 81e6 893c 8769 5c3b ab27 f23c
00000080: c2d7 46bc bee3 40bd 2f80 94bd 9115 b6bd
00000090: 3b44 a5bb 0d1a e8bd 6be4 41bd 0c4d 1fbd
000000a0: 1f30 d9bd 1688 103b 69c3 a9bd 7b4d 53bd
000000b0: 5e5f 99bc 0f8a 83bd 8832 84bd 71aa 9ebd
000000c0: d91e 04be db1d 53bd 204e 3cbd 8e2f a5bd
000000d0: 5d06 6abd b8a8 f9bd 7579 25bd 20ee b2bd
000000e0: 2c1d 463c 50af c3bc 5f53 c4bd ed58 bebd
000000f0: 4be7 983b 1953 90bd 835a 8cbd e79b 4fbc
00000100: 00b0 c3bd 5aef b33c c2be abbd dce1 6bbd
00000110: bb82 5f3c 66eb 38bd 8add 90bd b50e 0cbe
00000120: 0168 4bbd 1ce5 ecbc a023 2d3d 2a47 1e3d
00000130: ad22 66bb fb14 303d a924 d6bc d484 51bc
00000140: 172f 3bbd e577 61bd 1ffe bebd 4500 2ebd
00000150: b56c 0dbe bb55 cebd a456 a6bd 761f adbc
00000160: 258d e7bc 1eaa 8bbd 3167 25bd 278d 3b3c
00000170: 6d93 b3bd 008a 4cbd 6fa8 8fbd 1876 d2bc
00000180: 2722 a9bd cc23 8dbd a02c 24bc 5d80 87bd
00000190: 6606 abbd 4e14 07bc 8874 efbd 9518 bbbd
000001a0: 5931 763c 9ca8 21bd 2113 36ba 4595 f8bd
000001b0: f91b 3b3c 13ca fbbd 6f0e 183c aa05 84bd
000001c0: be2e 93bd 3283 11bc 062a 84bc c7da a8bd
000001d0: 3c58 16bd 2ab5 26bc f1ac c5bc 94f4 d4bb
000001e0: b69d 69bc 4ff5 e8bc 0c0a 91bd 4196 adbd
000001f0: b869 053c 3fff 22bc 150f 993c d781 75bd
00000200: 1ef0 dcbd af1a dfbc 944b f3bd 8d09 21bc
00000210: 340e 083c 200f 29bd dfb3 26bd 7068 9abd
00000220: 5abb d4bd 3c98 f63b 7e4e e0bc a4e8 cfbd
00000230: 791d cdbd 79f1 b1b8 ea52 ce3a 4a29 0b3b
00000240: 6d38 3ebd 2bfc 2a3b a28a 64bd c611 febc
00000250: 6d7b e6bc 2889 313d bca7 863c 674a 68bd
00000260: cb9f 2d3d a028 363d e3c9 19bd 6347 ff3c
00000270: 355a acbd 2e3d 20bd fc9b 46bd 5c52 ddbd
00000280: 8c23 cfbc 9f53 a3bd 9a40 92bd f2b1 a0bc
00000290: 4dce 7bbd 6c1b 45bd 080c 09bd ded0 1b3d
000002a0: d2d9 663b 50a1 8dbd e9b6 22bd 5a5e a5bd
000002b0: 37fe d5bc 6206 f6bc 7d87 5ebd ec40 03bc
000002c0: a3a2 0bbd 9257 63bd 66f0 84bd 6b28 1dbc
000002d0: e10d 98bd 31cc 19bd 6ccd afbd 65f3 d9bc
000002e0: 4233 0fbc 8a85 41bd 9347 36bc f106 adbd
000002f0: e7cb debd 6e4d 07bc 4937 b2bc fd4d b1bd
00000300: 6876 cdbd 548d 9dbd 18b9 88bc f639 4bbd
00000310: c9e4 dbbd ff89 fbbd ec03 9bbd d2f6 b1bd
00000320: 25f7 9cbd e46d 17bc 6c07 c0bd 5c91 793c
00000330: ba4a 34bd 5b27 7abd 4cdd bbbd 0e12 61bd
00000340: 0d47 423b 73f1 60bd 86fd 62bd 4736 223c
00000350: d93e a6bd 98f3 c6bd fb09 80bc 7de5 3e3c
00000360: d351 a1bd ec15 823c 3d6d b4bd fdf7 86bc
00000370: 2f9c 043d 9f3a ad3c 3c7d d5bd 6702 e3bd
00000380: edd8 80bd 5a61 4dbc 8a89 77bd 8238 0dbd
00000390: 30fb 82bd 383f 90ba 5d94 8bbd 014a b4bd
000003a0: 96f1 c6bd a8cf bcbd 7ef3 98bd e200 3b3c
000003b0: 74a6 02bd 1627 80bd 7af3 c2bd 8fa4 35bd
000003c0: 594e 9dbd a87f d33a 8c5c 55bd a67a 92bd
000003d0: cb18 a5bc 4d5f 53bc 7788 cebd 9c4a cabd
000003e0: 0ccc cfbd 8f03 07be fb89 0dbd 1584 b3bc
000003f0: 4d4a f3bc 9a78 65bd d729 1abc 0925 e9bc

bias f4 [128]
-0.06781808 -0.10211799 -0.049394175 -0.013339066 -0.10129959 -0.041375373 -0.0014652101 -0.07568594
-0.075985566 -0.10112514 -0.06685951 -0.10195722 -0.045657616 0.008975891 -0.035418335 -0.02740628
-0.040718466 -0.08322187 -0.10193977 -0.026931698 -0.017998021 -0.011019324 -0.115117416 -0.030471785
-0.103977725 0.006962731 -0.024887687 -0.029930064 -0.040296126 -0.032406323 -0.09140407 -0.088600524
-0.09616137 0.061617423 -0.02231576 -0.098966174 -0.052837193 -0.10370823 -0.06693331 -0.07541043
-0.026959818 -0.102745466 -0.10067297 -0.10664167 -0.09363454 -0.11525557 -0.11335817 -0.0007349221
-0.13171747 -0.107784174 -0.008843078 -0.03801098 -0.031456757 -0.03815549 -0.07189154 -0.029912889
-0.022315964 -0.0038288063 -0.1279078 -0.06812896 -0.07410048 -0.05359409 -0.10791403 -0.06805392
-0.016380895 -0.067408375 -0.011702219 -0.1132291 -0.03937945 -0.10553486 -0.02849852 -0.008037335
-0.020727888 -0.09044243 -0.027865658 -0.048517358 -0.04318116 -0.0814138 -0.09376075 -0.05094005
-0.0984218 -0.008154691 -0.024216302 -0.06307134 -0.018862326 -0.09261954 -0.02349426 -0.077871785
-0.004462705 -0.018120687 -0.054999195 -0.07310347 -0.08500062 -0.036468286 -0.055055026 -0.046586517
-0.0037752618 -0.10096345 -0.05716786 0.033656202 -0.0997075 -0.09513637 -0.038323555 -0.008732491
-0.0031966644 -0.007818354 -0.10419064 0.04584404 -0.086383425 0.018317537 -0.03714419 -0.044898685
-0.034279097 -0.0005857102 -0.013611598 -0.06253594 -0.067434855 -0.0075357137 -0.03319119 -0.029322185
-0.043817036 -0.083562165 -0.057525195 -0.043338995 -0.093447715 -0.010491071 -0.046839222 -0.07095515
00000000: 35e4 8abd 3d23 d1bd 8c51 4abd 198c 5abc
00000010: 2976 cfbd 3979 29bd 4b0c c0ba 3b01 9bbd
00000020: 529e 9bbd b31a cfbd a4ed 88bd f2ce d0bd
00000030: 7b03 3bbd 9e0f 133c d112 11bd 2383 e0bc
00000040: 68c8 26bd 3a70 aabd ccc5 d0bd dd9f dcbc
00000050: 9670 93bc 658a 34bc aec2 ebbd f79f f9bc
00000060: 46f2 d4bd 9f27 e43b 43e1 cbbc e52f f5bc
00000070: 8d0d 25bd 7ebc 04bd 0f32 bbbd 3174 b5bd
00000080: 41f0 c4bd 8d62 7c3d 8acf b6bc c7ae cabd
00000090: d06b 58bd fb64 d4bd 5514 89bd c970 9abd
000000a0: d6da dcbc 376c d2bd a12d cebd f366 dabd
000000b0: 77c3 bfbd 1d0b ecbd 5428 e8bd caa7 40ba
000000c0: f2e0 06be f3bd dcbd 8fe2 10bc 67b1 1bbd
000000d0: cdd8 00bd ee48 1cbd df3b 93bd e00b f5bc
000000e0: f8cf b6bc b6ec 7abb 43fa 02be 3287 8bbd
000000f0: fec1 97bd 7a85 5bbd 0802 ddbd db5f 8bbd
00000100: 3a31 86bc 670d 8abd aaba 3fbc a9e4 e7bd
00000110: 594c 21bd a922 d8bd ba75 e9bc 07af 03bc
00000120: 88cd a9bc e139 b9bd 8546 e4bc 23ba 46bd
00000130: bade 30bd 47bc a6bd a305 c0bd 84a6 50bd
00000140: 5e91 c9bd 419b 05bc 4461 c6bc 8c2b 81bd
00000150: 2a85 9abc 50af bdbd 0977 c0bc 3e7b 9fbd
00000160: e23b 92bb d671 94bc d646 61bd 46b7 95bd
00000170: ce14 aebd c55f 15bd 6181 61bd 81d1 3ebd
00000180: 626a 77bb edc5 cebd d928 6abd 16db 093d
00000190: 7233 ccbd dbd6 c2bd 29f9 1cbd b912 0fbc
000001a0: 217f 51bb 8e18 00bc e761 d5bd f6c6 3b3d
000001b0: cbe9 b0bd a90e 963c 8224 18bd afe7 37bd
000001c0: 3d68 0cbd 598a 19ba 2e03 5fbc d812 80bd
000001d0: 491b 8abd 26ee f6bb 7cf3 07bd 1435 f0bc
000001e0: 7e79 33bd a422 abbd 8a9f 6bbd 3b84 31bd
000001f0: 8461 bfbd bee2 2bbc 7cda 3fbd ef50 91bd

weight f4 [128]
0.88125443 0.8783016 0.87377375 0.8840047 0.886768 0.87682784 0.885006 0.87979084
0.885344 0.8931578 0.8950893 0.87623405 0.8636144 0.88898265 0.867132 0.88859785
0.88928074 0.8759707 0.87768614 0.87424386 0.8877902 0.8887994 0.8622276 0.87028587
0.88407624 0.8851651 0.86892194 0.8712959 0.8941944 0.8870876 0.8710073 0.8745577
0.8815518 0.8933924 0.8824709 0.8799011 0.88506794 0.89178514 0.87918425 0.8883395
0.8768614 0.8721037 0.8733935 0.8734238 0.88655764 0.86890614 0.87391216 0.89434594
0.8669304 0.8695659 0.88789946 0.8801993 0.88300747 0.86430985 0.8776759 0.8714192
0.87846625 0.8862719 0.8631129 0.86351806 0.8721846 0.8660501 0.8849147 0.8775516
0.8682121 0.8812466 0.8824773 0.85929894 0.88464135 0.89021367 0.8888742 0.87800646
0.8738464 0.87423 0.8672871 0.8870788 0.86436033 0.87442905 0.8871986 0.8889925
0.8914543 0.87433136 0.8670868 0.897614 0.87365323 0.860096 0.87034076 0.86722785
0.89043176 0.8797584 0.86670345 0.8661991 0.8942261 0.8945235 0.87323976 0.87679553
0.8735586 0.87132514 0.88585114 0.89410114 0.86611503 0.8688672 0.8810894 0.88876504
0.86896825 0.8680558 0.89017814 0.883104 0.8902023 0.8848602 0.8876915 0.87345064
0.8893772 0.8896658 0.8647415 0.88333124 0.8892356 0.8880559 0.8642036 0.8716724
0.8660077 0.8786269 0.87769276 0.8815362 0.882059 0.86603147 0.8974991 0.8780629
00000000: e499 613f 60d8 603f a3af 5f3f 224e 623f
00000010: 3a03 633f ca77 603f c18f 623f f939 613f
00000020: e8a5 623f fda5 643f 9324 653f e050 603f
00000030: d515 5d3f 5e94 633f 5dfc 5d3f 267b 633f
00000040: e7a7 633f 9e3f 603f 0ab0 603f 72ce 5f3f
00000050: 3846 633f 5c88 633f f3ba 5c3f 0ecb 5e3f
00000060: d252 623f 2e9a 623f ab71 5e3f 400d 5f3f
00000070: ede9 643f 2c18 633f 56fa 5e3f 03e3 5f3f
00000080: 61ad 613f 5db5 643f 9de9 613f 3341 613f
00000090: d093 623f 084c 643f 3812 613f 386a 633f
000000a0: fd79 603f 3042 5f3f b796 5f3f b498 5f3f
000000b0: 71f5 623f a270 5e3f b5b8 5f3f dbf3 643f
000000c0: 27ef 5d3f df9b 5e3f 614d 633f be54 613f
000000d0: c70c 623f 6943 5d3f 5eaf 603f 5415 5f3f
000000e0: 2ae3 603f b7e2 623f f8f4 5c3f 850f 5d3f
000000f0: 7d47 5f3f 76b5 5d3f c589 623f 39a7 603f
00000100: 2643 5e3f 6199 613f 08ea 613f 04fb 5b3f
00000110: db77 623f 0be5 633f 428d 633f 08c5 603f
00000120: 66b4 5f3f 8acd 5f3f 8706 5e3f 9917 633f
00000130: b846 5d3f 95da 5f3f 731f 633f 0395 633f
00000140: 5936 643f 2ed4 5f3f 67f9 5d3f 08ca 653f
00000150: bda7 5f3f 402f 5c3f a7ce 5e3f a502 5e3f
00000160: 56f3 633f d937 613f 47e0 5d3f 39bf 5d3f
00000170: 00ec 643f 7eff 643f a48c 5f3f ac75 603f
00000180: 89a1 5f3f 2a0f 5f3f 24c7 623f d0e3 643f
00000190: b7b9 5d3f 156e 5e3f 138f 613f 1b86 633f
000001a0: b474 5e3f e838 5e3f b7e2 633f 1b13 623f
000001b0: 4ce4 633f 3386 623f c03f 633f 769a 5f3f
000001c0: 39ae 633f 23c1 633f b35f 5d3f ff21 623f
000001d0: f2a4 633f a257 633f 723c 5d3f ec25 5f3f
000001e0: aeb2 5d3f b1ed 603f 79b0 603f 5bac 613f
000001f0: 9ece 613f 3db4 5d3f 80c2 653f bbc8 603f

bias f4 [128]
-0.1239259 -0.115147755 -0.13157013 -0.1271791 -0.12709169 -0.12216853 -0.12759331 -0.11862933
-0.13001841 -0.12800118 -0.12761703 -0.12883061 -0.12629151 -0.0872199 -0.11585819 -0.10891805
-0.091081865 -0.11960235 -0.123721935 -0.12391947 -0.12948577 -0.12933798 -0.138874 -0.11698248
-0.12975135 -0.091224164 -0.118048586 -0.11116086 -0.12492896 -0.1303676 -0.11258139 -0.12132748
-0.12657118 -0.09221223 -0.12720768 -0.13049296 -0.12105954 -0.12785953 -0.12997031 -0.13051143
-0.123718984 -0.11775091 -0.12481906 -0.11813039 -0.103085406 -0.13496357 -0.1247814 -0.12054999
-0.13668995 -0.14058375 -0.08057929 -0.11937368 -0.13138251 -0.13879098 -0.12879686 -0.122142695
-0.13088903 -0.1277833 -0.1365719 -0.135643 -0.1438805 -0.12206875 -0.11673194 -0.12887353
-0.12207473 -0.12808844 -0.124698386 -0.14003737 -0.124373905 -0.124811105 -0.11472944 -0.12667663
-0.12087375 -0.12834069 -0.11782924 -0.08989185 -0.13265601 -0.122895606 -0.108271696 -0.1277611
-0.12935887 -0.12283715 -0.12789524 -0.12031168 -0.1214701 -0.15297545 -0.120279506 -0.13098463
-0.12390221 -0.12606385 -0.106730975 -0.12732702 -0.10442573 -0.13459255 -0.1255765 -0.11765606
-0.12557916 -0.1359102 -0.082384184 -0.105234176 -0.1375922 -0.12667838 -0.13069254 -0.12307964
-0.123864405 -0.119837075 -0.12878744 -0.10366871 -0.1301808 -0.08586483 -0.101373374 -0.12765864
-0.12725627 -0.13253735 -0.12561144 -0.12882255 -0.1139362 -0.12887621 -0.12430639 -0.12333531
-0.13849008 -0.12925309 -0.122089915 -0.10829315 -0.14222762 -0.12086526 -0.101639286 -0.12735716
00000000: ddcc fdbd 96d2 ebbd 52ba 06be 3d3b 02be
00000010: 5324 02be 7f33 fabd d2a7 02be eff3 f2bd
00000020: 8c23 05be be12 03be 0aae 02be 2cec 03be
00000030: 9052 01be 59a0 b2bd 0f47 edbd 6d10 dfbd
00000040: 2189 babd 14f2 f4bd ed61 fdbd 7ec9 fdbd
00000050: eb97 04be 2d71 04be fc34 0ebe 8394 efbd
00000060: 8add 04be bcd3 babd 75c3 f1bd 4ea8 e3bd
00000070: c1da ffbd 167f 05be 1291 e6bd 8b7a f8bd
00000080: e09b 01be c4d9 bcbd bb42 02be f29f 05be
00000090: 10ee f7bd 9ced 02be f016 05be caa4 05be
000000a0: 6160 fdbd 6427 f1bd 23a1 ffbd 59ee f1bd
000000b0: 711e d3bd e433 0abe 648d ffbd eae2 f6bd
000000c0: 73f8 0bbe 30f5 0fbe c106 a5bd 307a f4bd
000000d0: 2389 06be 391f 0ebe 53e3 03be f325 fabd
000000e0: c607 06be a0d9 02be 81d9 0bbe 00e6 0abe
000000f0: 6955 13be 2eff f9bd 2811 efbd 6cf7 03be
00000100: 5102 fabd 9e29 03be de61 ffbd f565 0fbe
00000110: bfb7 febd f79c ffbd 45f7 eabd 85b7 01be
00000120: a88c f7bd be6b 03be 7550 f1bd 3819 b8bd
00000130: fad6 07be b1b0 fbbd 8dbd ddbd ced3 02be
00000140: a776 04be 0b92 fbbd f8f6 02be f865 f6bd
00000150: 51c5 f8bd 99a5 1cbe 1a55 f6bd d620 06be
00000160: 71c0 fdbd e216 01be c595 dabd 0462 02be
00000170: 28dd d5bd a1d2 09be 2097 00be a9f5 f0bd
00000180: d397 00be 0b2c 0bbe 0ab9 a8bd 0485 d7bd
00000190: f8e4 0cbe fab7 01be 44d4 05be 2e11 fcbd
000001a0: 9fac fdbd 246d f5bd dbe0 03be 4350 d4bd
000001b0: 1e4e 05be e6d9 afbd d89c cfbd f2b8 02be
000001c0: 784f 02be dfb7 07be 49a0 00be 0fea 03be
000001d0: 6257 e9bd 20f8 03be 5994 febd 3997 fcbd
000001e0: 58d0 0dbe ec5a 04be 470a fabd cdc8 ddbd
000001f0: 1ea4 11be 3588 f7bd 4228 d0bd ea69 02be

running_mean f4 [128]
-0.22967914 0.6334734 0.13927479 -0.20508051 -0.3418007 0.1598205 -0.1274429 0.25640354
-0.4221841 -0.47962117 -0.5024766 -0.25259846 0.52163994 0.16131549 0.532993 0.41537428
0.46709588 0.42250252 -0.09092365 0.05295459 -0.31822085 -0.32032254 -0.11922863 0.43312776
-0.27339274 0.5637086 0.5014602 0.19260532 -0.2849384 -0.23027351 -0.06448643 0.3772583
0.45559454 0.29610142 0.015872747 -0.20772082 0.09439148 -0.4513181 -0.07095599 -0.40389872
0.10362661 0.33398077 0.24324733 0.36506337 0.48484 0.26442546 0.2446279 -0.16827378
0.1277386 -0.0114181675 0.55462295 0.007815997 0.28363174 0.23932463 0.23209453 0.27600646
-0.25637817 -0.24242702 0.17087962 0.13518313 -0.12835583 0.4077418 -0.041341867 -0.12435466
0.39508218 -0.112938374 -0.12730692 -0.261523 -0.22848266 -0.34400797 0.063420035 0.29639637
0.22919701 -0.14833607 0.42887458 0.20851964 0.29444534 0.4379635 0.30029434 -0.17263617
-0.115609996 0.24632901 0.16662917 -0.05686254 0.5223242 0.005047716 0.21743506 0.07511701
-0.12791021 -0.10521993 0.27362415 -0.29921687 -0.15161191 -0.3372723 0.31485105 0.39334762
0.50960195 0.11025707 0.37692666 0.02195854 0.22022872 0.3642205 -0.27959323 -0.18405482
0.49322164 0.42351514 -0.28387055 0.46283543 -0.23815657 0.3474453 0.48179406 0.32930607
-0.27783924 -0.43763307 0.47453767 -0.3150187 0.12083645 -0.3230191 0.4808085 0.5628343
0.3303885 0.0029216632 0.2579976 0.50071734 -0.24504492 0.5123205 0.20215788 0.27689937
00000000: 0231 6bbe 502b 223f 0d9e 0e3e a000 52be
00000010: 8000 afbe fca7 233e 6480 02be 5347 833e
00000020: 8428 d8be e890 f5be 4ea2 00bf 9654 81be
00000030: 328a 053f e32f 253e 3b72 083f f0ab d43e
00000040: 3127 ef3e 4052 d83e 2e36 babd eae6 583d
00000050: d8ed a2be 5101 a4be 242e f4bd ecc2 dd3e
00000060: 22fa 8bbe 354f 103f b25f 003f 543a 453e
00000070: 72e3 91be d2cc 6bbe 7611 84bd 0028 c13e
00000080: b043 e93e 9b9a 973e 9007 823c c4b4 54be
00000090: 5250 c13d 2a13 e7be 6051 91bd d0cb cebe
000000a0: 303a d43d 87ff aa3e d415 793e 96e9 ba3e
000000b0: f33c f83e c662 873e bc7f 7a3e f64f 2cbe
000000c0: e8cd 023e 4413 3bbc c5fb 0d3f ab0e 003c
000000d0: 2e38 913e 8411 753e 30aa 6d3e b850 8d3e
000000e0: 0044 83be ca3e 78be 11fb 2e3e 726d 0a3e
000000f0: b66f 03be 89c3 d03e 1756 29bd a8ad febd
00000100: 3648 ca3e 3c4c e7bd bf5c 02be 58e6 85be
00000110: 5cf7 69be d021 b0be 5de2 813d 44c1 973e
00000120: 9fb2 6a3e 69e5 17be 7395 db3e 2c86 553e
00000130: 8ac1 963e c03c e03e 2ec0 993e 89c7 30be
00000140: efc4 ecbd ac3d 7c3e d6a0 2a3e b2e8 68bd
00000150: 0ab7 053f 5067 a53b 4ca7 5e3e f2d6 993d
00000160: e5fa 02be 8c7d d7bd 7718 8c3e f432 99be
00000170: 2740 1bbe f4ae acbe 2834 a13e dc64 c93e
00000180: 4675 023f 75ce e13d 88fc c03e 65e2 b33c
00000190: a383 613e 1c7b ba3e d826 8fbe de78 3cbe
000001a0: 8c87 fc3e fad6 d83e 7b57 91be c4f8 ec3e
000001b0: 51df 73be 5ae4 b13e b6ad f63e ce9a a83e
000001c0: f240 8ebe 7111 e0be 9af6 f23e 224a a1be
000001d0: 1a79 f73d c262 a5be 882c f63e e915 103f
000001e0: ae28 a93e 6079 3f3b 4318 843e 032f 003f
000001f0: 0eed 7abe 7027 033f 7a02 4f3e c1c5 8d3e
